self_play_1.pt (torch, 816296 bytes, 8 tensors)

layer1.weight f4 [256, 152]
0.0576273 0.05392267 0.0646697 -0.011303136 0.07471269 -0.07155613 -0.113172606 0.047423147
-0.035686888 -0.01779989 -0.016941091 -0.0022142353 -0.030472932 -0.044648845 -0.021496236 0.062533885
-0.011889668 0.016911773 -0.044623304 -0.058134437 0.043300536 0.03096891 -0.05053937 0.024486572
-0.059928082 -0.03966767 0.015742151 0.0075566634 0.007241759 0.0345592 -0.05945323 -0.030548966
0.06873167 -0.040534914 0.039684143 -0.002922231 -0.046269562 0.016054349 0.033622153 0.009791096
0.05614432 0.012906787 -0.004085531 0.08010065 0.08512936 -0.0434152 -0.027734675 -0.037412748
-0.06430411 -0.04257312 0.0037625057 0.02342481 -0.04546912 0.0058483905 -0.043205153 -0.04663154
-0.012668076 -0.042437688 0.031879533 0.030188086 0.061546195 0.044088356 0.0868741 -0.007517385
0.00090805686 -0.037274413 0.009416015 -0.029967383 0.020017141 0.073654614 0.07389999 -0.008677127
0.123351656 0.008675848 0.07545144 -0.0383969 -0.058018945 -0.0017473113 -0.07434883 -0.012724191
-0.080148794 0.03491032 -0.052567296 -0.06339927 -0.004139823 -0.11070416 0.03485489 0.06718282
0.02568722 -0.027246783 0.048660703 -0.01125695 -0.10508328 -0.049172614 -0.017870411 -0.047634855
0.015048502 -0.02500412 -0.005394969 0.04742681 -0.091388546 -0.07343367 -0.020221923 0.022914285
-0.04992791 -0.036815945 -0.045976575 -0.042041004 -0.02558275 0.050748724 -0.06291704 -0.013493432
-0.010005086 -0.049420416 -0.057869934 0.042798948 0.03132755 0.017236514 -0.099136226 -0.08107263
-0.00283447 -0.09472661 -0.08920368 0.05484026 0.01442632 -0.06294651 -0.066086955 -0.023427255
0.025366472 0.060763016 -0.030063136 -0.09949528 0.03865611 -0.018120153 0.04769117 -0.08187587
-0.045393795 -0.0191673 -0.012990648 -0.07287269 -0.074521825 0.083320096 -0.05498882 -0.04920521
-0.030537616 -0.06326634 0.036359016 0.009626397 -0.011965295 0.028044399 -0.07213893 -0.026984636
0.05884731 -0.06120566 0.022589857 0.023856355 0.05215021 -0.03767071 -0.06745817 -0.07223986
-0.014456333 -0.07298958 0.03906173 0.021703498 -0.03311236 0.02474279 -0.030423805 0.035930376
0.017871227 0.04631273 -0.004162572 -0.005566689 -0.042300995 0.05048045 0.025540275 0.04611498
-0.055442445 -0.003584895 0.042569544 0.04747026 -0.044246025 0.034986895 -0.03537184 0.0062580765
-0.02572498 0.02511165 -0.038042907 -0.04264989 -0.0026160711 -0.057294957 -0.041773234 0.026372792
0.068126634 -0.045404725 0.0068118554 0.015468797 -0.008996081 -0.0014135658 -0.0039388663 0.03290105
0.05125263 0.060127903 -0.015107489 0.007627098 0.02377255 -0.02026488 0.05136198 -0.038787033
-0.0680987 0.04130623 -0.058967147 0.03517518 0.0218586 -0.02180233 0.024356365 0.016067738
0.0012124628 0.044556938 0.062431674 0.045258243 -0.0196041 0.029589588 -0.052134357 0.06389495
0.062579274 -0.010883779 -0.0077081625 0.019227963 0.052922856 -0.011156279 -0.00017487987 -0.03712483
0.043287184 0.079189524 -0.063572906 0.07946545 -0.06444182 0.01888664 -0.04889264 0.052111804
0.023745254 0.06348846 0.034605827 -0.061498594 -0.043947086 0.026550844 0.057736594 0.019696755
-0.014804604 0.051781006 0.00132272 -0.07836578 -0.009875997 -0.0563596 0.07660802 0.010624786
00000000: 9b0a 6c3d 05de 5c3d 8c71 843d ca30 39bc
00000010: f802 993d 058c 92bd 0ac7 e7bd c63e 423d
00000020: 6a2c 12bd 13d1 91bc 0bc8 8abc b41c 11bb
00000030: 5fa2 f9bc b5e1 36bd e018 b0bc c411 803d
00000040: e2cc 42bc 8f8a 8a3c edc6 36bd 601e 6ebd
00000050: e75b 313d 83b2 fd3c 5f02 4fbd 1098 c83c
00000060: 2677 75bd 917a 22bd aff5 803c e39d f73b
00000070: 474c ed3b f38d 0d3d 3b85 73bd d341 fabc
00000080: 31c3 8c3d f007 26bd d78b 223d e782 3fbb
00000090: 2785 3dbd 6984 833c 62b7 093d d56a 203c
000000a0: 96f7 653d fd76 533c ebdf 85bb cf0b a43d
000000b0: 4d58 ae3d 23d4 31bd d433 e3bc 1c3e 19bd
000000c0: e0b1 83bd 2761 2ebd 5f94 763b 63e5 bf3c
000000d0: d43d 3abd dba3 bf3b e3f7 30bd b700 3fbd
000000e0: c38d 4fbc 24d3 2dbd 1d94 023d 014d f73c
000000f0: dd17 7c3d fe95 343d 0ceb b13d 6554 f6bb
00000100: aa0a 6e3a 0ead 18bd a145 1a3c 287e f5bc
00000110: fdfa a33c 3bd8 963d e158 973d 822a 0ebc
00000120: cb9f fc3d 2525 0e3c 4986 9a3d 1146 1dbd
00000130: 46a5 6dbd 0a06 e5ba 3344 98bd 2079 50bc
00000140: 0d25 a4bd 20fe 0e3d ce50 57bd 7ad7 81bd
00000150: 5aa7 87bb ddb8 e2bd 00c4 0e3d 2597 893d
00000160: 016e d23c a534 dfbc 7250 473d 126f 38bc
00000170: e735 d7bd 3969 49bd f864 92bc c41c 43bd
00000180: fe8d 763c 71d5 ccbc 48c8 b0bb 9d42 423d
00000190: eb29 bbbd 6464 96bd 72a8 a5bc bdb6 bb3c
000001a0: 3581 4cbd 51cc 16bd ef51 3cbd 3033 2cbd
000001b0: ea92 d1bc e5dd 4f3d a6da 80bd 8e13 5dbc
000001c0: 5fec 23bc 106d 4abd 0609 6dbd f34d 2f3d
000001d0: 5151 003d 9733 8d3c ef07 cbbd 6809 a6bd
000001e0: 84c2 39bb 0600 c2bd 6bb0 b6bd 2ea0 603d
000001f0: 5f5c 6c3c 1aea 80bd 9958 87bd 84ea bfbc
00000200: 59cd cf3c a4e2 783d f746 f6bc 2ec4 cbbd
00000210: df55 1e3d b770 94bc d157 433d 89ae a7bd
00000220: d8ee 39bd be04 9dbc bad6 54bc 473e 95bd
00000230: e69e 98bd baa3 aa3d f53b 61bd 678b 49bd
00000240: 062a fabc c891 81bd 31ed 143d 09b8 1d3c
00000250: 160a 44bc 5ebd e53c 93bd 93bd e20e ddbc
00000260: e009 713d c9b2 7abd 5d0e b93c 676e c33c
00000270: 759b 553d 9a4c 1abd 8227 8abd 7ef2 93bd
00000280: 41da 6cbc 907b 95bd 31ff 1f3d 89cb b13c
00000290: d3a0 07bd 64b1 ca3c 583b f9bc bb2b 133d
000002a0: ae66 923c 6bb2 3d3d 2f66 88bb c668 b6bb
000002b0: cf43 2dbd 97c4 4e3d d739 d13c 10e3 3c3d
000002c0: 9e17 63bd 8ff0 6abb 675d 2e3d 2d70 423d
000002d0: 523b 35bd 6b4e 0f3d 10e2 10bd 8d10 cd3b
000002e0: 31bd d2bc f2b6 cd3c e1d2 1bbd a7b1 2ebd
000002f0: 6472 2bbb 1eae 6abd 691a 2bbd c10b d83c
00000300: fa85 8b3d 4efa 39bd fc35 df3b d670 7d3c
00000310: 4c64 13bc 6647 b9ba 9b11 81bb 40c3 063d
00000320: 47ee 513d ad48 763d 6785 77bc bcec f93b
00000330: a7be c23c 8902 a6bc f160 523d 27df 1ebd
00000340: 5577 8bbd b930 293d 8987 71bd d913 103d
00000350: cf10 b33c cd9a b2bc 0087 c73c 7da0 833c
00000360: 80eb 9e3a 5681 363d 5bb8 7f3d b560 393d
00000370: c798 a0bc dd65 f23c d68a 55bd 5bdb 823d
00000380: 9029 803d e151 32bc c194 fcbb f683 9d3c
00000390: a3c5 583d d3c8 36bc f55f 37b9 3510 18bd
000003a0: e74d 313d 1e2e a23d 8332 82bd c8be a23d
000003b0: 13fa 83bd 28b8 9a3c a643 48bd 3073 553d
000003c0: 6885 c23c 3d06 823d d7be 0d3d f3e5 7bbd
000003d0: dc01 34bd 2881 d93c 357d 6c3d 175b a13c
000003e0: 038f 72bc 5218 543d 1e5f ad3a 3d7e a0bd
000003f0: efce 21bc 53d9 66bd aae4 9c3d 9513 2e3c

layer1.bias f4 [256]
0.048340194 0.03412625 -0.038154878 0.066057764 0.008853188 0.04108876 0.032073047 -0.047734793
0.029980028 -0.008036553 -0.006226119 0.058512997 -0.08161488 -0.025343418 -0.046433154 -0.075660504
-0.04713806 0.011765268 -0.062272422 0.02804909 0.06601946 -0.006321406 0.013120295 0.01160728
0.02584761 0.043695964 0.052476976 -0.023479061 0.031286772 0.073617876 0.021832932 0.0021253282
0.023991562 0.06363607 -0.078000784 -0.0051012775 0.004365101 -0.026346395 0.040420696 -0.025139857
0.048125673 0.02724418 0.0028566532 -0.07386393 0.008267315 -0.056537747 -0.0355437 0.04973199
0.0017123879 -0.049021427 -0.06957125 0.058251593 -0.068778336 -0.030722683 0.03111565 -0.031207483
0.03942829 0.061694194 0.0044453912 0.04519166 0.07172688 0.06214621 -0.05112661 -0.09033789
-0.00656865 -0.015575926 0.03743966 0.0651333 0.050004214 0.021933088 -0.07313922 -0.093936265
0.020161163 -0.0528404 -0.04677616 0.03213588 -0.06778098 0.019501038 0.0151676005 -0.027207976
0.04702011 -0.05546854 0.040519822 -0.030183135 0.023738358 0.041584916 0.049610887 0.020823533
0.03876024 -0.0732728 -0.07890582 0.00600325 0.060961533 -0.017421676 0.017813047 -0.01908277
-0.09117528 0.017900478 -0.029846435 -0.044978272 0.025320744 -0.02759052 -0.009728006 -0.03534781
-0.05004031 -0.059288427 0.031006066 0.03991495 0.023324024 -0.07633703 -0.030270446 0.04270919
-0.041537482 0.014491929 0.03127924 0.05060886 0.0049352655 0.012931702 0.03954237 0.022018204
-0.064709544 -0.02964228 -0.069088034 -0.08521827 0.037734143 0.0041500553 0.03583781 -0.06261841
-0.07128066 0.023585852 0.031724766 0.033938043 0.046679053 -0.07841188 -0.010885921 -0.07674637
-0.05478009 -0.097206295 0.06505857 -0.07597779 0.04251768 -0.06835904 -0.05200763 -0.05332947
-0.0013564709 0.029508438 -0.06540855 0.030333836 0.009979634 -0.021806633 0.010369616 -0.039149925
0.069115646 -0.07570988 0.007242706 -0.005538282 -0.024000062 -0.023419054 0.063607186 -0.041231446
-0.060923655 0.056157846 -0.04333733 -0.08382406 0.050578635 0.0150768515 -0.06039182 -0.009754494
-0.09092274 -0.050937932 -0.08679401 0.06938925 -0.059447933 0.048178364 0.034505054 -0.021235306
-0.027022256 -0.019302467 0.0117457695 -0.049047384 -0.08038728 0.02331648 0.060180042 -0.020957744
-0.058923483 0.0020594576 -0.029594641 0.05621075 -0.020950524 0.055152636 -0.014779719 -0.055282675
0.022516487 -0.009667034 0.03941951 -0.056813054 0.03919626 0.056932975 0.037644763 0.076641664
0.049048934 -0.0091330325 -0.036825348 -0.06558018 0.06886151 -0.021087125 0.04583707 0.09269422
0.04358256 0.07851362 0.05599389 -0.013093525 -0.017226333 0.029458018 -0.04344172 0.016777845
0.01056009 0.016681544 0.0038846743 -0.10047516 -0.0478287 0.021446938 0.026224317 -0.06600626
-0.080668695 -0.08327083 -0.067616716 -0.014897523 0.06867099 0.02852358 0.045406193 -0.08188275
-0.0021157968 -0.015303645 0.044203065 0.01468337 -0.0689579 0.007548555 0.057865273 -0.015400845
-0.05321242 -0.0124870995 -0.028591242 -0.04551732 0.032796614 -0.030920293 -0.026195666 -0.056609195
0.035623766 0.05065 0.0011419344 0.029015964 0.044990007 -0.076785214 0.007241185 -0.05881269
00000000: 5e00 463d f7c7 0b3d 4a48 1cbd 4b49 873d
00000010: f60c 113c b04c 283d 075f 033d 8f85 43bd
00000020: ad98 f53c bfab 03bc 7904 ccbb 53ab 6f3d
00000030: b425 a7bd 009d cfbc b130 3ebd e5f3 9abd
00000040: d713 41bd 1cc3 403c 5e11 7fbd 35c7 e53c
00000050: 3635 873d cc23 cfbb 81f6 563c 762c 3e3c
00000060: 5ebe d33c 8afa 323d 19f2 563d 2957 c0bc
00000070: 8f26 003d f8c4 963d fada b23c 1749 0b3b
00000080: f489 c43c a153 823d e0be 9fbd 9e28 a7bb
00000090: 1f09 8f3b 65d4 d7bc 2c90 253d 1af2 cdbc
000000a0: 6d1f 453d 302f df3c b036 3b3b f945 97bd
000000b0: a273 073c 2094 67bd 4596 11bd c5b3 4b3d
000000c0: 3472 e03a b1ca 48bd 5f7b 8ebd 3999 6e3d
000000d0: a8db 8cbd 23ae fbbc 3fe6 fe3c d6a6 ffbc
000000e0: 8f7f 213d 0db3 7c3d a5aa 913b e41a 393d
000000f0: 8be5 923d 068d 7e3d 236a 51bd 1203 b9bd
00000100: d43d d7bb 2b32 7fbc 545a 193d 9c64 853d
00000110: 38d1 4c3d 05ad b33c 04ca 95bd a861 c0bd
00000120: 0629 a53c 2d6f 58bd 5c98 3fbd eaa0 033d
00000130: c1d0 8abd a4c0 9f3c 8781 783c 43e3 debc
00000140: 2998 403d fb32 63bd 1df8 253d 9f42 f7bc
00000150: f276 c23c f254 2a3d c934 4b3d 1d96 aa3c
00000160: 0fc3 1e3d 0d10 96bd 6099 a1bd e9b6 c43b
00000170: cdb2 793d e7b7 8ebc abec 913c 7853 9cbc
00000180: 1bba babd 06a4 923c 8380 f4bc 233b 38bd
00000190: 736d cf3c 8405 e2bc 3762 1fbc ddc8 10bd
000001a0: 11f7 4cbd 6cd8 72bd 6f00 fe3c dc7d 233d
000001b0: 0612 bf3c 9756 9cbd baf9 f7bc d5ef 2e3d
000001c0: 3523 2abd 8e6f 6d3c a91e 003d 3c4b 4f3d
000001d0: 02b8 a13b 7ddf 533c 2ef7 213d 855f b43c
000001e0: 7086 84bd 5ed4 f2bc 077e 8dbd eb86 aebd
000001f0: 1e8f 1a3d 30fd 873b abca 123d 153e 80bd
00000200: 98fb 91bd 1e37 c13c d4f1 013d 9e02 0b3d
00000210: 8932 3f3d 6896 a0bd dd5a 32bc 332d 9dbd
00000220: 1661 60bd 1814 c7bd 6d3d 853d 3e9a 9bbd
00000230: 0527 2e3d d3ff 8bbd f405 55bd 0170 5abd
00000240: 9ccb b1ba aebb f13c ebf4 85bd aa7e f83c
00000250: 9e81 233c d3a3 b2bc 52e5 293c ac5b 20bd
00000260: 818c 8d3d c80d 9bbd 3954 ed3b 7a7a b5bb
00000270: c79b c4bc 51d9 bfbc 7c44 823d 4ee2 28bd
00000280: 158b 79bd c505 663d 7c82 31bd f3ab abbd
00000290: 8b2b 4f3d e604 773c 6a5d 77bd 50d1 1fbc
000002a0: b435 babd 4ba4 50bd 0fc1 b1bd f31b 8e3d
000002b0: ad7f 73bd ad56 453d 2c55 0d3d aaf5 adbc
000002c0: c75d ddbc 3520 9ebc 5471 403c e9e5 48bd
000002d0: 16a2 a4bd 3402 bf3c 597f 763d 93af abbc
000002e0: c059 71bd f7f7 063b 7670 f2bc 3e3d 663d
000002f0: 6fa0 abbc bbe7 613d a226 72bc 1670 62bd
00000300: 7f74 b83c 7b62 1ebc 5a76 213d ceb4 68bd
00000310: 428c 203d 8d32 693d 6531 1a3d 4ef6 9c3d
00000320: 89e7 483d b7a2 15bc 2dd6 16bd e74e 86bd
00000330: 4307 8d3d e8be acbc a7bf 3b3d 78d6 bd3d
00000340: a083 323d c0cb a03d d959 653d 3986 56bc
00000350: 3d1e 8dbc f151 f13c f2ef 31bd b171 893c
00000360: 3a04 2d3c bca7 883c 0596 7e3b ecc5 cdbd
00000370: 07e8 43bd 7db1 af3c 61d4 d63c 4a2e 87bd
00000380: a135 a5bd e689 aabd a27a 8abd be14 74bc
00000390: 60a3 8c3d 48aa e93c d8fb 393d 25b2 a7bd
000003a0: 2ea9 0abb 24bc 7abc 460e 353d 8492 703c
000003b0: cd39 8dbd de59 f73b 2304 6d3d d353 7cbc
000003c0: 44f5 59bd b196 4cbc 2e38 eabc 5f70 3abd
000003d0: be55 063d 8e4c fdbc 4b98 d6bc 0bdf 67bd
000003e0: 3aea 113d 6076 4f3d f6ac 953a e3b2 ed3c
000003f0: 7147 383d 9141 9dbd 7647 ed3b 93e5 70bd

layer2.weight f4 [256, 256]
-0.0024382628 0.013031327 -0.0055314046 0.036837704 -0.012983244 -0.05219244 0.0070354524 0.04997335
-0.056442887 0.007335758 -0.006683504 -0.028380128 -0.026021264 -0.07089794 -0.003476833 -0.037076853
0.004574899 0.0028040505 -0.06105599 -0.053380203 0.002287892 0.029863551 0.027587844 0.031445682
-0.06459071 -0.012058341 -0.0021743379 0.045644127 -0.014021023 0.028082388 -0.026064372 0.05399887
-0.020720284 0.0023873094 0.008260764 0.009875408 -0.0074474597 -0.0052930815 -0.0053991904 -0.019805303
-0.017832287 0.040635608 -0.02014565 -0.044565026 0.011511923 -0.007515137 0.0133962175 -0.0103190355
0.01705731 0.022209892 0.014471734 -0.048855778 -0.04494272 0.007817237 0.010906955 0.047765166
0.019208556 0.024359029 0.0011891907 0.028761454 -0.016215859 0.049946737 -0.031556796 -0.04453522
-0.00022211547 -0.0020878534 -0.046996787 0.002183882 0.029910402 -0.030115975 0.035712626 0.059325047
-0.034764074 0.029435359 -0.0032324926 0.014712529 0.070190184 0.06775264 -0.00355039 -0.007920233
-0.03767404 -0.02782007 -0.06597877 0.07546871 0.054128096 -0.051703528 -0.02165875 0.042756427
0.022952728 0.014163224 0.046414163 0.013937456 -0.03584555 -0.002768656 0.007544295 0.0013840279
-0.025610521 -0.041183084 -0.0167505 0.04075063 0.040735714 0.03215727 0.048849467 0.007843419
-0.023063045 0.032235477 0.028090918 0.015579665 -0.0042634965 -0.008190308 0.039489657 0.048216783
0.05707577 0.009754229 -0.0018883913 0.0052638785 0.05035457 -0.0013360028 -0.04753619 0.011878172
-0.0020539805 0.032454867 -0.07082021 0.042812273 0.054425057 0.034651525 0.047148142 -0.07893581
-0.022143489 -0.024237659 -0.06245478 -0.018868407 -0.045924034 0.020010812 0.027205333 -0.00053002767
-0.0007662997 -0.03862913 -0.006096896 -0.06660351 0.037963003 0.009261196 -0.049851816 -0.043355394
-0.054893997 -0.04630967 0.029331373 -0.05590968 0.043305807 -0.041804735 0.033777524 0.026831627
-0.052247398 -0.03736155 -0.008919592 0.006791904 -0.04107247 0.0425312 0.054015085 0.064227544
0.026244434 -0.040826317 -0.025751691 -0.03149693 0.036297005 0.0271983 -0.041076437 0.030755144
0.015179914 -0.041196242 0.030601254 0.0122711705 0.06094448 0.015701968 0.03927987 -0.0303574
0.01867793 0.030171793 0.024004828 0.0041072764 0.03632654 -0.03590037 -0.03319885 -0.040222257
0.022353765 -0.056480013 0.02172836 -0.06999165 -0.053734712 -0.033538543 -0.03353489 0.025063245
0.04221736 -0.021613153 -0.08368048 0.032114964 -0.05459705 -0.013883446 0.017757326 -0.025588052
0.04334105 -0.0154589005 0.038899127 -0.043103565 -0.0129901655 -0.045758795 -0.059081074 0.036721025
0.039624847 -0.029326847 0.021447899 -0.011003038 -0.040187195 0.015139784 -0.045567617 0.03168864
0.023481306 0.05114597 0.03959783 0.013540941 -0.020758854 -0.03029155 0.014776922 0.04543699
-0.06776286 0.019088091 -0.07102116 0.04151053 -0.035813507 -0.033035252 0.035927225 0.037633196
0.026483303 -0.058889825 -0.017073277 0.026422914 -0.056034632 0.058511384 0.020376535 -0.04058974
0.022103371 -0.013708942 -0.024550425 0.049593154 -0.016705701 -0.04145647 0.057644356 -0.08854669
-0.018471379 0.048524577 -0.06439226 -0.020028897 -0.013024074 0.026506923 0.050035186 -0.0046408433
00000000: 43cb 1fbb 5981 553c c940 b5bb 22e3 163d
00000010: acb7 54bc bdc7 55bd a789 e63b dbb0 4c3d
00000020: a830 67bd cc60 f03b 4c01 dbbb 717d e8bc
00000030: 8c2a d5bc f032 91bd 94db 63bb e6dd 17bd
00000040: 09e9 953b 29c4 373b d915 7abd 33a5 5abd
00000050: 75f0 153b 68a4 f43c e7ff e13c 30cd 003d
00000060: 2248 84bd 5990 45bc 567f 0ebb 56f5 3a3d
00000070: 6fb8 65bc 090d e63c f384 d5bc eb2d 5d3d
00000080: 96bd a9bc 6874 1c3b 2858 073c 77cc 213c
00000090: d209 f4bb 9671 adbb b1eb b0bb bb3e a2bc
000000a0: 0415 92bc 8671 263d 7d08 a5bc d189 36bd
000000b0: 819c 3c3c 8a41 f6bb cf7b 5b3c 2c11 29bc
000000c0: c6bb 8b3c 85f1 b53c da1a 6d3c ff1c 48bd
000000d0: dc15 38bd de13 003c 16b3 323c 68a5 433d
000000e0: 435b 9d3c 968c c73c 9ede 9b3a 249d eb3c
000000f0: 1fd7 84bc f394 4c3d b341 01bd 906a 36bd
00000100: abe7 68b9 5ed4 08bb b47f 40bd 761f 0f3b
00000110: a906 f53c c7b5 f6bc 6747 123d d2fe 723d
00000120: c664 0ebd 6c22 f13c 3ad8 53bb d20c 713c
00000130: dfbf 8f3d e5c1 8a3d a9ad 68bb ddc3 01bc
00000140: 1850 1abd eae6 e3bc e11f 87bd 578f 9a3d
00000150: 6cb5 5d3d 14c7 53bd b16d b1bc 5d21 2f3d
00000160: 5c07 bc3c de0c 683c c71c 3e3d ed59 643c
00000170: c9d2 12bd 5772 35bb 2236 f73b 4568 b53a
00000180: 28cd d1bc 98af 28bd 5838 89bc 22ea 263d
00000190: 7eda 263d 57b7 033d 6116 483d af81 003c
000001a0: b6ee bcbc 5909 043d ed1e e63c da41 7f3c
000001b0: cdb4 8bbb a430 06bc e8bf 213d f67e 453d
000001c0: 48c8 693d 34d0 1f3c e683 f7ba 9d7c ac3b
000001d0: 9840 4e3d d11c afba 4fb5 42bd aa9c 423c
000001e0: 139c 06bb 65ef 043d 300a 91bd ec5b 2f3d
000001f0: cfec 5e3d c2ee 0d3d 691e 413d 19a9 a1bd
00000200: 4366 b5bc 0e8e c6bc 95d0 7fbd eb91 9abc
00000210: d71a 3cbd b7ed a33c b8dd de3c 8ef1 0aba
00000220: 81e1 48ba 9439 1ebd 78c8 c7bb 6c67 88bd
00000230: 187f 1b3d 45bc 173c 6b31 4cbd 6d95 31bd
00000240: 87d8 60bd 35af 3dbd 5948 f03c 8c01 65bd
00000250: 6e61 313d 713b 2bbd 4d5a 0a3d 00ce db3c
00000260: 5e01 56bd 6d08 19bd 7b23 12bc 9f8e de3b
00000270: 9b3b 28bd 3235 2e3d ec3e 5d3d bb89 833d
00000280: 91fe d63c 7f39 27bd 36f5 d2bc ed02 01bd
00000290: 2bac 143d f8ce de3c c43f 28bd 36f2 fb3c
000002a0: 2db5 783c 64bd 28bd 7baf fa3c 050d 493c
000002b0: eba0 793d 6aa1 803c eee3 203d 15b0 f8bc
000002c0: 7502 993c d62a f73c c6a5 c43c 5596 863b
000002d0: 23cb 143d 440c 13bd 84fb 07bd 18c0 24bd
000002e0: 3e1f b73c 9657 67bd acff b13c c857 8fbd
000002f0: ee18 5cbd b65f 09bd e15b 09bd 6f51 cd3c
00000300: 1cec 2c3d 110e b1bc ac60 abbd fb8a 033d
00000310: 28a1 5fbd 6577 63bc d077 913c 099e d1bc
00000320: 6386 313d 5447 7dbc b154 1f3d 5d8d 30bd
00000330: b4d4 54bc 936d 3bbd fffe 71bd c968 163d
00000340: aa4d 223d db3e f0bc 81b3 af3c 1646 34bc
00000350: 549b 24bd db0c 783c 1ca5 3abd f3cb 013d
00000360: de5b c03c 707e 513d 5631 223d d3da 5d3c
00000370: 790e aabc fc25 f8bc e71a 723c 231c 3a3d
00000380: 41c7 8abd a15e 9c3c 8b73 91bd f206 2a3d
00000390: 2fb1 12bd f94f 07bd 6d28 133d 4425 1a3d
000003a0: 83f3 d83c 7536 71bd 42dd 8bbc de74 d83c
000003b0: 9284 65bd a2a9 6f3d b1ec a63c 6d41 26bd
000003c0: 2112 b53c 789b 60bc f91d c9bc 3122 4b3d
000003d0: 65da 88bc 42ce 29bd 7d1c 6c3d f857 b5bd
000003e0: 4a51 97bc b5c1 463d 17e0 83bd a413 a4bc
000003f0: ed62 55bc 0c25 d93c b2f1 4c3d 3712 98bb

layer2.bias f4 [256]
-0.017142838 0.0069323014 0.04991687 -0.023543028 -0.042972125 -0.062159434 -0.058882225 0.04440853
-0.018745646 0.04737707 0.054739922 -0.00037744368 0.025773764 -0.021949232 0.071054764 -0.044752937
-0.07952548 0.009063298 -0.045131978 -0.03503681 -0.059103467 0.030081052 -0.02459331 0.07221416
-0.045098167 0.029730113 -0.011753814 -0.078075334 -0.06381721 0.016326439 0.011396906 0.025278423
-0.0029784632 0.009462641 -0.02687322 -0.07359481 -0.017561939 0.045398362 -0.021152874 -0.06203791
-0.022466121 0.038416006 -0.052499194 0.009298551 0.007011753 -0.056871936 -0.030699851 0.04591252
0.044498183 -0.018465297 0.027225353 0.05981448 0.0011115861 -0.026021836 0.03241008 -0.052067723
0.04165432 -0.010992836 -0.029553456 0.07992094 0.053811777 -0.02718595 -0.039734542 -0.043085296
-0.037460834 0.005497223 -0.021020856 -0.027239135 0.024407519 -0.06228178 -0.063468896 0.060859784
-0.038854457 0.026325941 0.03128986 0.06444559 -0.030653493 0.0699307 0.0066306815 0.010453877
0.055220366 -0.04667046 0.039790876 0.022502804 0.058173135 -0.01859522 -0.058375206 -0.0006067276
0.012356258 0.011216683 0.011608191 0.005800254 -0.03331782 -0.00084710424 0.0049055633 0.006555227
-0.013905221 0.0031502221 0.03407458 0.06338548 0.004269384 0.018342992 -0.060942214 -0.08175786
-0.075738534 -0.035696622 -0.015619843 -0.015093803 -0.015675487 0.041619893 0.048632562 -0.0010792075
-0.014681343 0.00756241 0.044794694 -0.039272808 -0.04166613 -0.008389034 0.009541536 0.05402076
0.010094957 -0.012445567 -0.017701672 -0.04239436 -0.06168126 -0.057131175 0.037913427 -0.03505352
0.008587342 -0.021500926 0.083157346 0.028509505 0.020147067 0.015928773 0.046868008 -0.025425464
-0.068308145 -0.0240695 0.03853316 0.029656282 0.0031476016 -0.048924312 0.028011918 0.034653187
0.032347385 -0.015340153 0.029172909 0.057365447 0.00411195 -0.0035883945 0.08231309 0.05242465
-0.0410444 -0.028086817 -0.042435385 0.05048207 0.026144449 0.0075818314 0.053195067 -0.022752509
0.036120594 -0.015057695 0.0023702555 -0.006073447 -0.017457984 -0.056223527 0.017221065 0.037429567
0.051759593 0.0071980106 0.0779005 -0.031648003 -0.0045599886 0.06498552 0.07117624 -0.009044632
0.06435165 0.0408053 -0.0023745801 0.08435871 0.027767738 0.07253392 0.057110935 -0.04168577
0.02077901 0.038165636 -0.04232411 -0.005189414 0.054273758 0.0560438 -0.06660469 0.0048336997
-0.04103587 0.07012012 -0.03424856 -0.010700803 -0.07455352 -0.061099093 -0.002928943 0.008645454
0.0066581834 0.02741644 0.01987892 0.024996182 0.032348584 -0.031714175 0.030306833 0.07643933
-0.0068498896 -0.029909948 0.035655566 0.055203624 0.07254914 -0.0011452042 -0.001022894 0.035351392
-0.010288241 -0.02659325 -0.004759971 -0.024258018 0.0013242009 0.057823412 0.049050212 0.05431875
-0.056953896 0.0123359235 -0.033584777 -0.01260275 0.05856531 0.00040540326 0.022330374 -0.033461418
-0.047414906 0.0115914745 -0.05478171 -0.06008366 -0.029374098 -0.0034625747 0.03682404 0.02973133
-0.02797243 -0.052896358 -0.02567432 0.052090958 0.028839977 0.034358587 0.026341103 0.031455997
-0.013125396 0.033474334 0.075639576 -0.04645728 -0.019492397 -0.045717698 0.04176168 -0.017236644
00000000: 236f 8cbc 5c28 e33b a275 4c3d 4fdd c0bc
00000010: 8a03 30bd e49a 7ebd 7d2e 71bd b8e5 353d
00000020: 7890 99bc 750e 423d f836 603d a2e3 c5b9
00000030: 8023 d33c e0ce b3bc 2985 913d db4e 37bd
00000040: 41de a2bd 3a7e 143c 4fdc 38bd c282 0fbd
00000050: 7a16 72bd 8a6c f63c e977 c9bc 04e5 933d
00000060: dbb8 38bd 918c f33c 1293 40bc f6e5 9fbd
00000070: 99b2 82bd 06bf 853c 17ba 3a3c b214 cf3c
00000080: 5232 43bb 3109 1b3c 3a25 dcbc e0b8 96bd
00000090: 0ede 8fbc a2f3 393d cb48 adbc 771b 7ebd
000000a0: df0a b8bc 1a5a 1d3d 6509 57bd f358 183c
000000b0: d9c2 e53b 8cf2 68bd 417e fbbc c40e 3c3d
000000c0: ba43 363d 8944 97bc b407 df3c 0700 753d
000000d0: a4b2 913a bf2b d5bc 6fc0 043d f744 55bd
000000e0: b89d 2a3d 4c1b 34bc 171a f2bc 97ad a33d
000000f0: bd69 5c3d 12b5 debc b0c0 22bd 357a 30bd
00000100: 8870 19bd 0d22 b43b ee33 acbc 9b24 dfbc
00000110: 47f2 c73c 2e1b 7fbd fbfb 81bd 1c48 793d
00000120: da25 1fbd 80a9 d73c cc29 003d 0dfc 833d
00000130: 091d fbbc d437 8f3d 3046 d93b bd46 2b3c
00000140: c02e 623d 8629 3fbd c2fb 223d cd57 b83c
00000150: f446 6e3d 0155 98bc d71a 6fbd cd0c 1fba
00000160: e771 4a3c 2ec6 373c 4830 3e3c 0f10 be3b
00000170: 4478 08bd 3410 5eba d9be a03b 3bcd d63b
00000180: b9d2 63bc f573 4e3b c991 0b3d 3fd0 813d
00000190: 30e6 8b3b 0b44 963c 8b9e 79bd aa70 a7bd
000001a0: ce1c 9bbd 9f36 12bd 5fea 7fbc 004c 77bc
000001b0: e169 80bc 9f79 2a3d f032 473d 3274 8dba
000001c0: 048a 70bc 18ce f73b a47a 373d 86dc 20bd
000001d0: 1baa 2abd 2972 09bc 1a54 1c3c df44 5d3d
000001e0: 5265 253c 7ee8 4bbc 1903 91bc b5a5 2dbd
000001f0: 7da5 7cbd 6102 6abd 1c4b 1b3d 4894 0fbd
00000200: ecb1 0c3c b622 b0bc 664e aa3d c48c e93c
00000210: 760b a53c 0f7d 823c abf8 3f3d 1049 d0bc
00000220: 24e5 8bbd 662d c5bc f2d4 1d3d bbf1 f23c
00000230: fe47 4e3b dc64 48bd 4079 e53c 80f0 0d3d
00000240: b17e 043d 4455 7bbc 06fc ee3c 08f8 6a3d
00000250: 89bd 863b 452b 6bbb c493 a83d 3bbb 563d
00000260: 2c1e 28bd 5316 e6bc bad0 2dbd 49c6 4e3d
00000270: e22c d63c 0371 f83b 12e3 593d 7863 babc
00000280: 30f3 133d 8db4 76bc 4a56 1b3b c403 c7bb
00000290: 0c04 8fbc a44a 66bd 3113 8d3c bf4f 193d
000002a0: de01 543d 4add eb3b 4c8a 9f3d 56a1 01bd
000002b0: f56b 95bb 2117 853d d9c4 913d f02f 14bc
000002c0: ccca 833d 7523 273d d89e 1bbb 42c4 ac3d
000002d0: 2b79 e33c aa8c 943d 28ed 693d b3be 2abd
000002e0: be38 aa3c 9253 1c3d 0c5c 2dbd f60b aabb
000002f0: 294e 5e3d 2f8e 653d 0a68 88bd 0364 9e3b
00000300: 3a15 28bd 239b 8f3d 3848 0cbd 6c52 2fbc
00000310: 84af 98bd 0b43 7abd 82f3 3fbb aaa5 0d3c
00000320: e42c da3b 7198 e03c 1ed9 a23c cbc4 cc3c
00000330: f37f 043d b9e6 01bd 0946 f83c 398c 9c3d
00000340: 0a75 e0bb b505 f5bc 920b 123d 321d 623d
00000350: a594 943d ad1a 96ba a112 86ba 9fcc 103d
00000360: 0390 28bc 16da d9bc 88f9 9bbb c0b8 c6bc
00000370: cf90 ad3a 3ed8 6c3d e0e8 483d 567d 5e3d
00000380: 7d48 69bd 9d1c 4a3c 3190 09bd c47b 4ebc
00000390: 2ee2 6f3d 4e8c d439 30ee b63c d70e 09bd
000003a0: 2236 42bd 2bea 3d3c c962 60bd 491a 76bd
000003b0: f3a1 f0bc 5dec 62bb ced4 163d 1e8f f33c
000003c0: 7026 e5bc daa9 58bd f452 d2bc 545d 553d
000003d0: d141 ec3c 97bb 0c3d 4cc9 d73c 01d8 003d
000003e0: e70b 57bc 621c 093d ece8 9a3d fd49 3ebd
000003f0: 85ae 9fbc 7b42 3bbd 4c0e 2b3d dd33 8dbc

layer3.weight f4 [256, 256]
-0.056421783 -0.07076318 0.048073195 -0.013006612 0.06845851 0.04843549 -0.05896875 -0.03197596
0.0040419023 -0.0666752 -0.048245136 -0.04124334 0.01149743 0.007998561 0.004585548 0.018153315
-0.0128887035 0.0155388415 -0.039596733 -0.02396241 -0.048150122 0.0022308002 0.0152063 -0.029435575
-0.014692148 0.031291563 0.0101290755 0.03076349 0.06653836 -0.021032352 -0.03927582 -0.013117404
-0.047177363 0.043526754 -0.03975381 -0.054999266 -0.016364746 0.053272855 0.0061461655 0.02194079
0.03276474 0.01866 -0.03081777 -0.008557297 0.017801339 -0.047868293 -0.023981405 -0.018992666
0.025319807 0.04524233 -0.018432576 -0.01317688 -0.03257507 0.0014842788 0.0042627286 -0.03380565
0.013516605 -0.029321922 -0.0023821911 0.054412045 0.027151033 -0.066489525 0.009075956 0.04939605
0.049427506 0.041197885 -0.05033054 0.009719964 -0.033957716 -0.0035981138 -0.05254016 0.0064034592
0.027954323 -0.025082419 -0.048349593 -0.006263165 0.030155407 -0.033491705 -0.023240225 -0.039424244
-0.051607568 0.03510932 0.04490462 0.0281446 0.0013576334 0.0039900704 0.045789346 0.03656821
-0.021127757 -0.02626311 0.03114335 -0.016088689 -0.022949155 -0.0016463227 0.049441922 0.031051828
0.049080264 0.05264081 -0.009522725 -0.05810479 0.036084857 0.04241476 0.017979696 0.048046198
0.00040952503 -0.038096868 0.05178738 0.04692146 0.034387708 0.02241614 -0.002211113 -0.013158007
-0.04705612 -0.059349537 0.029453814 -0.05685499 0.039188556 0.03765954 -0.025299033 0.026018275
-0.013856737 0.023209408 -0.016791668 0.04954107 0.024661744 -0.015050881 0.0022531918 0.008196822
0.03482445 0.0014120582 0.022364452 0.051873308 0.05516149 -0.024415383 0.002863289 -0.02193419
-0.015097673 0.037890013 -0.040609576 -0.030596863 0.024392536 0.004065035 0.04482777 0.023990154
0.0043612374 -0.020655675 0.020833272 0.037510373 0.03889169 -0.035958767 0.0284845 0.041181836
-0.046225723 -0.0029463838 -0.023892025 -0.0038238768 -0.027489305 0.031201908 0.020387052 -0.054548047
-0.0268269 0.008340588 -0.024308115 -0.021253325 -0.016082413 0.015461046 -0.018996486 0.04209427
-0.023279196 0.013440852 -0.049118105 -0.054117672 -0.023251934 -0.01485629 0.051759873 -0.018042535
-0.029248303 0.058652066 -0.026396967 -0.014010602 0.015026124 -0.031097386 0.046604488 -0.041902598
-0.0140742 -0.034555487 0.023327122 -0.028837489 0.020949498 0.0004096763 -0.03406187 -0.052739862
0.030668158 -0.04061743 0.05501926 0.0478924 -0.050732605 -0.043392155 -0.03560512 0.030007802
-0.036903504 0.028372487 -0.05695716 0.05502222 0.0064796605 0.031214628 0.015599366 0.034040004
-0.026167559 -0.019304017 0.00200284 -0.034324836 -0.051072404 0.030379541 -0.051548325 -0.0016165744
0.0042821523 -0.027769055 -0.0094088875 0.046180006 0.010259124 -0.054512642 -0.042436946 0.05169865
0.041487873 0.011062456 -0.01069365 0.020570515 -0.06277489 -0.019639626 0.0102333855 -0.034167882
-0.042068917 0.013545694 -0.005250759 0.030727081 -0.032807305 -0.015589442 -0.029775912 0.01008162
-0.026880546 0.029899817 -0.05691644 0.018549522 -0.023775 0.030458817 -0.06222667 -0.05837422
-0.0055639152 0.010843338 0.014832343 -0.06952701 0.04577947 -0.015463782 -0.0008074827 0.027080478
00000000: 871a 67bd 49ec 90bd 66e8 443d af19 55bc
00000010: fa33 8c3d 4b64 463d 3789 71bd 39f9 02bd
00000020: ef71 843b 028d 88bd b19c 45bd c7ee 28bd
00000030: b75f 3c3c 650c 033c 5d42 963b 43b6 943c
00000040: 242b 53bc a096 7e3c 2f30 22bd d14c c4bc
00000050: 1039 45bd 9e32 123b d823 793c e022 f1bc
00000060: 56b7 70bc 952b 003d 6cf4 253c b703 fc3c
00000070: 4445 883d 0a4c acbc afdf 20bd 61ea 56bc
00000080: 0d3d 41bd 1c49 323d e4d4 22bd e946 61bd
00000090: 5c0f 86bc a334 5a3d c665 c93b 2cbd b33c
000000a0: 5234 063d dbdc 983c 8c75 fcbc e833 0cbc
000000b0: 1dd4 913c 8b11 44bd a774 c4bc 8296 9bbc
000000c0: 7c6b cf3c 0550 393d eaff 96bc d7e3 57bc
000000d0: 706d 05bd 228c c23a 5cae 8b3b cb77 0abd
000000e0: c074 5d3c 8734 f0bc 891e 1cbb 2adf 5e3d
000000f0: d86b de3c a92b 88bd 52b3 143c 8353 4a3d
00000100: 7f74 4a3d 1dbf 283d 6527 4ebd 7c40 1f3c
00000110: 3f17 0bbd 55ce 6bbb 5a34 57bd 1cd4 d13b
00000120: 7700 e53c a579 cdbc 390a 46bd 3c3b cdbb
00000130: 7908 f73c 992e 09bd 4962 bebc 517b 21bd
00000140: 7562 53bd cace 0f3d e8ed 373d 818f e63c
00000150: 9ef2 b13a 23bf 823b 9c8d 3b3d 8cc8 153d
00000160: 1e14 adbc bc25 d7bc 5720 ff3c 6dcc 83bc
00000170: deff bbbc 6cc9 d7ba 9d83 4a3d 6760 fe3c
00000180: 6308 493d e49d 573d 3405 1cbc 4aff 6dbd
00000190: b7cd 133d 19bb 2d3d 284a 933c 17cc 443d
000001a0: 85b5 d639 760b 1cbd 011f 543d b830 403d
000001b0: 20da 0c3d 0ea2 b73c 52e8 10bb ae94 57bc
000001c0: ebbd 40bd 8018 73bd 2049 f13c c7e0 68bd
000001d0: 2e84 203d e440 1a3d eb3f cfbc 4724 d53c
000001e0: 5e07 63bc a821 be3c ae8e 89bc 94eb 4a3d
000001f0: 6d07 ca3c f897 76bc 49aa 133b f74b 063c
00000200: 15a4 0e3d d014 b93a a835 b73c 1b79 543d
00000210: 04f1 613d c502 c8bc 05a6 3b3b 55af b3bc
00000220: 3b5c 77bc 8f32 1b3d 3a56 26bd 46a6 fabc
00000230: dbd2 c73c fc33 853b 539d 373d 0087 c43c
00000240: b6e8 8e3b 1736 a9bc 8aaa aa3c 7aa4 193d
00000250: e54c 1f3d 8049 13bd 5358 e93c 49ae 283d
00000260: 2f57 3dbd 1e18 41bb 35b9 c3bc 029a 7abb
00000270: 4031 e1bc 259b ff3c bf02 a73c c66d 5fbd
00000280: 16c4 dbbc f6a6 083c d021 c7bc 741b aebc
00000290: 44bf 83bc 5450 7d3c 859e 9bbc 0b6b 2c3d
000002a0: 03b4 bebc 0537 5c3c 1130 49bd 7eaa 5dbd
000002b0: d77a bebc cc67 73bc 2902 543d f0cd 93bc
000002c0: 239a efbc 263d 703d 743e d8bc b98c 65bc
000002d0: 2230 763c f2bf febc 59e4 3e3d 0fa2 2bbd
000002e0: 7997 66bc 0e8a 0dbd 8518 bf3c 993c ecbc
000002f0: 489e ab3c d2c9 d639 7684 0bbd c105 58bd
00000300: ca3b fb3c 765e 26bd e05b 613d d22a 443d
00000310: fecc 4fbd f9bb 31bd add6 11bd ecd2 f53c
00000320: 2128 17bd 6b6d e83c e94b 69bd fb5e 613d
00000330: 5553 d43b d2b5 ff3c 7c94 7f3c 886d 0b3d
00000340: 595d d6bc 7523 9ebc 1442 033b 3398 0cbd
00000350: 4c31 51bd 84de f83c 5624 53bd 3ce3 d3ba
00000360: 4c51 8c3b ee7b e3bc bc27 1abc 3f27 3d3d
00000370: e315 283c a648 5fbd 5dd2 2dbd f7c1 533d
00000380: 30ef 293d 4e3f 353c 6b34 2fbc 7f83 a83c
00000390: 1f90 80bd 48e3 a0bc eea9 273c 9ff3 0bbd
000003a0: 7550 2cbd c2ee 5d3c 8f0e acbb 5cb7 fb3c
000003b0: f460 06bd dc6a 7fbc 9dec f3bc 612d 253c
000003c0: 9734 dcbc 76f0 f43c 3721 69bd 2bf5 973c
000003d0: cac3 c2bc c584 f93c 65e1 7ebd ce19 6fbd
000003e0: 8151 b6bb 42a8 313c 5b03 733c 2d64 8ebd
000003f0: 4183 3b3d cd5b 7dbc 3fad 53ba e1d7 dd3c

layer3.bias f4 [256]
-0.04559385 -0.025261953 0.004178466 -0.05543662 0.039374772 -0.012310026 0.017329093 -0.037946273
0.024709215 0.0047682594 -0.0027626462 0.0039878814 -0.047322214 -0.054174263 0.02631081 -0.05524976
0.007763424 0.00058463175 -0.038961977 -0.06611821 -0.055467222 -0.013217947 0.023644552 0.0015314154
0.037100606 -0.025958283 -0.01085109 0.037464928 -0.03681989 3.8436367e-05 -0.0146819735 0.02158495
-0.009692072 -0.059842575 -0.018358525 0.0024974896 0.016849337 -0.061989643 -0.047857318 -0.059766714
0.030221265 -0.06815623 -0.049350776 -0.020546455 -0.04381345 -0.0034475997 -0.05333041 0.057553228
-0.017119234 -0.028138299 0.022228595 -0.025087027 -0.04427598 0.03342041 0.02000395 -0.03449063
-0.060132742 0.062338583 0.039562255 -0.028676894 0.027547952 -0.038896315 -0.06949381 -0.06333719
-0.016886562 0.045774978 -0.042951506 0.051631764 0.07330232 -0.059002597 -0.040636487 -0.069258854
0.06867755 0.006788658 -0.02424869 0.006187347 0.0502429 -0.012906276 -0.049140684 -0.040527325
-0.017743373 -0.023977835 0.003619968 -0.04060678 0.040220786 -0.03790542 -0.009097057 0.016604893
-0.012119836 -0.04520176 -0.061512657 -0.036367744 -0.022128347 -0.019068712 0.009438253 -0.0068393257
0.065388985 0.0013917917 -0.015625406 0.030886065 -0.030065075 0.037274905 -0.067817226 0.06524275
-0.032534376 -7.6617594e-05 -0.021844743 0.04222077 -0.05031269 -0.06287927 0.0010391306 0.02067581
0.026088284 0.039004795 -0.03548239 -0.0303163 0.057917036 0.05953871 0.001572565 -0.0047690603
0.009908868 -0.07084341 0.037131425 -0.0022956682 -0.017294321 0.048498448 0.07279292 0.021123229
-0.026537322 -0.013435653 -0.024523344 -0.03738036 -0.039146632 0.03887382 -0.045622088 0.043968987
0.027644575 -0.055888806 0.045429118 -0.013886597 0.016346969 0.018700749 -0.02895429 0.02988375
0.010556622 -0.002368195 0.011957746 0.033379562 -0.054654222 -0.010467115 -0.033938956 -0.04219105
0.023505654 -0.069147445 -0.057569876 -0.008646664 -0.03866153 0.010758946 0.05479977 0.0670104
0.0047425246 -0.006241744 -0.05442915 -0.069892704 0.043924768 -0.03974614 0.002409999 -0.048403814
0.047843866 -0.020393543 0.03541076 -0.049291383 0.030523477 0.043918956 0.026656328 0.010661194
-0.023280349 0.03914369 -0.013847698 0.040540498 -0.051691946 0.06348483 -0.056352247 -0.07427946
-0.043796554 -0.04724238 -0.051951002 0.021529008 -0.0696192 0.02117875 0.056672823 0.07014294
0.051835794 -0.013344384 -0.06304701 -0.049363505 0.05318149 0.06956357 -0.031855572 -0.03553122
-0.025414446 -0.066008806 -0.041031335 0.017019112 0.012352818 -0.03865141 -0.054127827 -0.026274279
0.031782936 -0.05233518 -0.06792684 -0.00872834 -0.05338487 -0.020174148 -0.0540344 -0.01350453
-0.036578678 -0.014173814 -0.018608142 -0.013016321 -0.010627307 -0.022705248 -0.07593017 0.09324382
0.036959954 0.0038503879 0.037383046 -0.03399193 -0.03754376 -0.025144706 -0.0126605695 -0.0069867196
0.06068308 0.016324034 -0.02820405 0.025242211 0.035475597 -0.047649126 -0.040385477 -0.03412439
-0.06952874 -0.03831989 0.04392379 0.03107821 -0.0512969 0.024294276 -0.04327729 -0.04969467
0.036691573 -0.027687766 0.0013346603 0.028814917 0.0065868534 -0.025472445 0.052380815 0.030346408
00000000: 9ec0 3abd 28f2 cebc 83eb 883b 8211 63bd
00000010: 7147 213d feaf 49bc bef5 8d3c 8d6d 1bbd
00000020: fb6a ca3c 0f3f 9c3b 830d 35bb c6ac 823b
00000030: f0d4 41bd d5e5 5dbd c589 d73c 934d 62bd
00000040: 5264 fe3b f941 193a 9896 1fbd fc68 87bd
00000050: 9931 63bd 1790 58bc 38b2 c13c c6b9 c83a
00000060: cef6 173d 77a6 d4bc c5c8 31bc d374 193d
00000070: 74d0 16bd bc36 2138 a98c 70bc ecd2 b03c
00000080: 7fcb 1ebc 7d1d 75bd 9e64 96bc ecac 233b
00000090: 9f07 8a3c dae8 7dbd 0906 44bd f1cd 74bd
000000a0: 9692 f73c 7e95 8bbd 0a24 4abd 0a51 a8bc
000000b0: bb75 33bd 20f1 61bb fd70 5abd efbc 6b3d
000000c0: a33d 8cbc 4a82 e6bc be18 b63c 4f83 cdbc
000000d0: bb5a 35bd d7e3 083d 53df a33c 0c46 0dbd
000000e0: c04d 76bd be56 7f3d 080c 223d ceeb eabc
000000f0: 3eac e13c be51 1fbd c552 8ebd eeb6 81bd
00000100: b055 8abc 8b7e 3b3d ebed 2fbd d47b 533d
00000110: 871f 963d b5ac 71bd 7272 26bd 96d7 8dbd
00000120: d1a6 8c3d 6473 de3b 30a5 c6bc 3bbf ca3b
00000130: 80cb 4d3d d874 53bc be47 49bd fbff 25bd
00000140: 8d5a 91bc 2a6d c4bc fc3c 6d3b 4c53 26bd
00000150: 8dbe 243d b742 1bbd d30b 15bc fc06 883c
00000160: 4792 46bc 7b25 39bd b2f4 7bbd 58f6 14bd
00000170: 8246 b5bc fd35 9cbc e7a2 1a3c 6c1c e0bb
00000180: a9ea 853d c86c b63a da00 80bc c604 fd3c
00000190: 084b f6bc 92ad 183d c2e3 8abd fe9d 853d
000001a0: c442 05bd c2ad a0b8 bff3 b2bc b0ef 2c3d
000001b0: ae14 4ebd d9c6 80bd 7033 883a 5160 a93c
000001c0: 19b7 d53c 7ec3 1f3d fc55 11bd e459 f8bc
000001d0: 6a3a 6d3d ddde 733d 861e ce3a c745 9cbb
000001e0: ce58 223c 5a16 91bd 1f17 183d ec72 16bb
000001f0: d2ac 8dbc 4fa6 463d 7414 953d 9f0a ad3c
00000200: cc64 d9bc 3721 5cbc 2ee5 c8bc 261c 19bd
00000210: 3858 20bd 283a 1f3d 3ade 3abd d318 343d
00000220: e076 e23c a9eb 64bd e213 3a3d 9c84 63bc
00000230: 14ea 853c 5032 993c 8c31 edbc c4ce f43c
00000240: aff5 2c3c b833 1bbb 6cea 433c 02b9 083d
00000250: 1bdd 5fbd 437e 2bbc 9303 0bbd 86d0 2cbd
00000260: ee8e c03c 2d9d 8dbd 64ce 6bbd bdaa 0dbc
00000270: 8d5b 1ebd 4a46 303c b975 603d c03c 893d
00000280: 2e67 9b3b 8b87 ccbb 1af1 5ebd e823 8fbd
00000290: 75ea 333d d9cc 22bd 13f1 1d3b 1443 46bd
000002a0: eef7 433d 5c10 a7bc e00a 113d c3e5 49bd
000002b0: 5f0c fa3c 5de4 333d 5f5e da3c 4aac 2e3c
000002c0: 6eb6 bebc 2255 203d 75e1 62bc cb0d 263d
000002d0: efba 53bd 5604 823d 9dd1 66bd d41f 98bd
000002e0: 0464 33bd 3a81 41bd 93ca 54bd 9a5d b03c
000002f0: 8394 8ebd 0f7f ad3c c321 683d 1aa7 8f3d
00000300: c551 543d 67a2 5abc ca1e 81bd 6331 4abd
00000310: d6d4 593d 5877 8e3d fd7a 02bd 2f89 11bd
00000320: f531 d0bc a02f 87bd 7910 28bd aa6b 8b3c
00000330: 7963 4a3c f150 1ebd 24b5 5dbd 283d d7bc
00000340: d32e 023d 6a5d 56bd 3a1d 8bbd 5001 0fbc
00000350: 18aa 5abd 4144 a5bc 2d53 5dbd 1b42 5dbc
00000360: 86d3 15bd 4939 68bc 1a70 98bc 6842 55bc
00000370: 281e 2ebc 5b00 babc 4781 9bbd 9ef6 be3d
00000380: 5263 173d ca56 7c3b f71e 193d 1f3b 0bbd
00000390: 7cc7 19bd 45fc cdbc 476e 4fbc daf0 e4bb
000003a0: d28e 783d fbb9 853c 2e0c e7bc c1c8 ce3c
000003b0: dc4e 113d bb2b 43bd 3e6b 25bd 04c6 0bbd
000003c0: 1665 8ebd 51f5 1cbd 6fe9 333d bb97 fe3c
000003d0: b31c 52bd ca04 c73c 8743 31bd a38c 4bbd
000003e0: e749 163d 74d1 e2bc c5ef ae3a 430d ec3c
000003f0: 88d6 d73b 97ab d0bc 448d 563d 0899 f83c

layer4.weight f4 [127, 256]
0.011580359 -0.031030715 0.030193191 -0.018401667 0.025703548 0.026972953 -0.019541336 0.0036324717
0.017773926 -0.008144653 0.0350409 -0.025970802 0.075513616 0.031156927 -0.0098708635 -0.03273485
-0.009653616 0.003853355 0.077833526 0.041091446 0.0365072 -0.02833498 -0.025100343 -0.00014490826
0.047219414 0.00022838084 -0.026861755 0.034719348 0.005533642 0.048343915 -0.040190786 0.018596603
0.015973367 0.03051296 -0.0070694685 0.033763036 -0.011230707 0.013016814 0.010281962 -0.0297654
-0.019123428 -0.015563463 0.015996186 0.0009198955 -0.006990678 0.032767728 0.027094651 0.009946321
-0.012781199 0.026698701 0.012276914 0.029991632 -0.0070525277 -0.015781322 0.03638707 0.012074319
0.037080713 0.029634984 -0.025073554 0.02184955 0.0006161933 0.0077285157 -0.0026451328 -0.0042119464
0.027962714 -0.002119966 0.02714597 0.01840914 0.005800579 0.015383611 0.01034877 -0.01469612
-0.00080584496 0.0221455 -0.009817841 0.014079929 0.045794148 0.0064697815 0.0052478225 0.0058123046
-0.035402913 -0.0016796173 0.011376996 -0.0005816474 -0.0044938796 -0.01914539 0.0201674 0.016448842
0.01211545 0.0011452537 0.016754871 0.031007199 -0.005422455 -0.0036229019 -0.03419999 0.073585205
0.029006694 0.020493152 -0.019545358 0.042491503 0.007692527 0.024147084 -0.032555815 0.036518905
0.02423626 0.035043735 0.0077523342 0.015955366 -0.015078162 -0.037211776 0.0009859962 -0.012141777
-0.010315362 0.034664895 0.017254142 0.029275883 0.012588062 0.051166218 -0.024512094 -0.032941535
-0.007591795 0.060291674 0.016125746 -0.00038222 0.044168677 0.0060625835 0.015484963 -0.017400414
-0.025497882 0.007706933 0.0071105543 0.021338424 0.009869536 0.0389726 0.012823833 -5.0711773e-05
0.029479451 0.017303735 -0.0039185015 -0.02208962 0.016317869 -0.033618927 -0.016093463 0.011074584
0.022222755 -0.011585611 0.0065549114 0.033489387 -0.008190712 -0.03138349 -0.025016192 -0.008764404
-0.0418943 0.007618392 -0.02079679 0.0105582755 -0.011576758 -0.038018826 0.008052222 0.034901164
0.01871829 -0.0096398685 0.022980412 0.038292192 0.08684052 -0.005724347 0.013071972 0.017807072
-0.016406972 0.03554553 -0.02078668 0.013197297 0.021809425 -0.01829455 -0.0035433464 0.012176434
0.010857571 -0.026228476 -0.023669265 0.0051536043 -0.013506311 0.027563952 0.024480283 -0.0068139983
-0.042562183 -0.025398038 0.01877715 -0.010668039 0.052575257 0.013024003 0.032360293 0.013937064
0.017616386 0.040881816 -0.018065657 -0.018333793 0.06310177 0.016504696 -0.008841902 0.007442766
0.016596382 -0.017334504 -0.015425784 0.014636758 0.028111193 -0.008679285 -0.05524718 0.042454723
0.026293421 -0.009645229 -0.00093114335 -0.032153286 -0.037287142 -0.012714561 -0.013822799 -0.028786635
-0.046922054 -0.017352296 0.03539729 0.0020958113 -0.027995067 -0.027503313 -0.015551368 0.01935665
0.073005706 0.054396503 -0.009174189 -0.0145158125 0.025676208 -0.022395147 0.015139241 -0.0025276067
0.042632066 0.080776036 -0.014295558 -0.03448837 0.007870029 0.012281821 0.0028990759 -0.026111031
0.018545393 0.03301032 0.00097124575 0.013837513 -0.015483308 0.007866891 -0.038211003 0.0071177674
-0.0481119 -0.019519754 -0.03553498 0.024965102 0.0178702 -0.03192964 0.05801374 -0.0030432001
00000000: 8cbb 3d3c 2034 febc b657 f73c 18bf 96bc
00000010: 3f90 d23c 62f6 dc3c 2715 a0bc c30e 6e3b
00000020: a09a 913c 2771 05bc 0c87 0f3d b8c0 d4bc
00000030: e2a6 9a3d d03c ff3c 67b9 21bc fa14 06bd
00000040: 332a 1ebc 9288 7c3b 2f67 9f3d 814f 283d
00000050: 9388 153d c31e e8bc 3c9f cdbc 84f2 17b9
00000060: 2569 413d 8479 6f39 2f0d dcbc e035 0e3d
00000070: 8e53 b53b 4504 463d 189f 24bd e757 983c
00000080: 94da 823c 51f6 f93c 00a7 e7bb 1c4b 0a3d
00000090: 0001 38bc 7a44 553c ad75 283c 91d6 f3bc
000000a0: bca8 9cbc e5fd 7ebc 6f0a 833c 2425 713a
000000b0: 0f12 e5bb 7437 063d 9af5 dd3c e5f5 223c
000000c0: 3c68 51bc 3cb7 da3c 1c25 493c 03b1 f53c
000000d0: e418 e7bb d547 81bc 9c0a 153d 5dd3 453c
000000e0: f2e1 173d 11c5 f23c 0e67 cdbc d4fd b23c
000000f0: 0888 213a 7d3f fd3b f759 2dbb 5e04 8abb
00000100: 1012 e53c 21ef 0abb 3a61 de3c c4ce 963c
00000110: c912 be3b 8b0b 7c3c e38d 293c ffc7 70bc
00000120: 573f 53ba 7b6a b53c 03db 20bc 81af 663c
00000130: a592 3b3d 7600 d43b edf5 ab3b 2575 be3b
00000140: a502 11bd 9b26 dcba 9466 3a3c b279 18ba
00000150: 6541 93bb cbd6 9cbc 1a36 a53c b9bf 863c
00000160: e17f 463c 561c 963a 8341 893c cf02 fe3c
00000170: d9ae b1bb 356e 6dbb 4a15 0cbd d7b3 963d
00000180: 729f ed3c 41e1 a73c 961d a0bc 920b 2e3d
00000190: 9811 fc3b 1bd0 c53c 3f59 05bd d994 153d
000001a0: 1f8b c63c 058a 0f3d 4b07 fe3b d4b4 823c
000001b0: 650a 77bc 606b 18bd 8b3c 813a 4eee 46bc
000001c0: c401 29bc c7fc 0d3d 8f58 8d3c fad3 ef3c
000001d0: 293e 4e3c ab93 513d 96cd c8bc b4ed 06bd
000001e0: 98c4 f8bb 67f4 763d 241a 843c b364 c8b9
000001f0: 37ea 343d a3a8 c63b a4b4 7d3c 508b 8ebc
00000200: efe0 d0bc 718a fc3b a7ff e83b ebcd ae3c
00000210: d6b3 213c bca1 1f3d 0e1b 523c 5ab3 54b8
00000220: e47e f13c 90c0 8d3c c666 80bb 4af5 b4bc
00000230: 0dad 853c 00b4 09bd 70d6 83bc 2c72 353c
00000240: 7f0c b63c 93d1 3dbc 95ca d63b 2b2c 093d
00000250: 5632 06bc f98b 00bd c2ee ccbc 9398 0fbc
00000260: 5c99 2bbd b4a3 f93b 085e aabc 9efc 2c3c
00000270: 71ac 3dbc a1b9 1bbd 78ed 033c 86f4 0e3d
00000280: 1957 993c 8af0 1dbc 6b41 bc3c 46d8 1c3d
00000290: 71d9 b13d 4e93 bbbb d32b 563c 23e0 913c
000002a0: ea67 86bc 3198 113d d448 aabc 7a39 583c
000002b0: aea9 b23c 74de 95bc 7d37 68bb aa7f 473c
000002c0: f4e3 313c 1add d6bc 0ce6 c1bc 91df a83b
000002d0: 9349 5dbc cccd e13c e08a c83c f647 dfbb
000002e0: af55 2ebd 8c0f d0bc 8ad2 993c 00c9 2ebc
000002f0: 2759 573d a162 553c 3a8c 043d 4958 643c
00000300: 3d50 903c b173 273d 6efe 93bc c030 96bc
00000310: 803b 813d db34 873c a0dd 10bc 72e2 f33b
00000320: 23f5 873c 1701 8ebc 6dbc 7cbc 03cf 6f3c
00000330: 7249 e63c 8f33 0ebc de4a 62bd 01e5 2d3d
00000340: 4d65 d73c 0607 1ebc f917 74ba 2ab3 03bd
00000350: 67ba 18bd bc50 50bc 0579 62bc f3d1 ebbc
00000360: 5731 40bd 6726 8ebc c0fc 103d e159 093b
00000370: e955 e5bc a14e e1bc 2acb 7ebc d691 9e3c
00000380: 0484 953d dece 5e3d 564f 16bc bbd3 6dbc
00000390: e956 d23c 0776 b7bc 940a 783c 34a6 25bb
000003a0: f69e 2e3d e86d a53d eb37 6abc ad43 0dbd
000003b0: 4bf1 003c b139 493c 6cfe 3d3b cde6 d5bc
000003c0: 82ec 973c d435 073d 339b 7e3a bcb6 623c
000003d0: b3ad 7dbc 22e4 003c 2483 1cbd 293c e93b
000003e0: fc10 45bd e4e7 9fbc 218d 11bd 9d83 cc3c
000003f0: 8764 923c a7c8 02bd d19f 6d3d 6d70 47bb

layer4.bias f4 [127]
0.030063927 0.03474082 0.011295273 0.011570836 0.007937244 0.029556032 0.005964896 0.01941729
0.03317762 -0.013399699 0.017840933 -0.009231039 0.004268378 -0.018958593 -0.0072583756 0.01741907
0.011961395 0.020178687 0.011327163 0.030840632 0.030558474 0.029734505 0.033602484 -0.005567805
0.03600472 0.015631506 0.0075160637 0.013017131 -0.009491251 0.011371841 -0.01630607 0.014342715
0.027234798 -0.018312281 0.01555304 0.0051922267 0.026628144 -0.004381273 0.01938902 -0.023715178
-0.012525077 -0.009777653 -0.0049695484 -0.0136542 0.003071975 -0.0011727075 0.032696433 0.0061393445
-0.013984474 -0.008700671 -0.014406418 -0.011732978 0.011398654 -0.007835037 0.000549702 0.02985612
0.0114924265 0.009693665 0.026809923 0.022116125 0.016819675 -0.007887143 -0.023621669 0.028844953
0.02186734 0.018889006 -0.022727685 -0.023423586 0.015550029 -0.0010975737 -0.0070990412 -0.01947279
0.013587075 0.026675623 -0.0010694888 0.009921242 -0.014582331 -0.015265209 0.012589672 0.010165084
-0.019731157 0.011690988 -0.015954923 -0.015705029 0.016504483 0.019213695 -0.011178452 -0.01317375
0.014907696 -0.0031199588 -0.033861034 0.016898472 0.01695547 0.016436247 0.018180782 -0.0025648829
-0.007262595 0.018409194 -0.011050675 -0.030653013 0.018843794 0.012059811 -0.009428859 -0.008354945
-0.011607414 -0.0023808016 -0.012512419 0.020175792 -4.9664122e-05 -0.037097827 0.001431064 -0.024531003
0.009517698 -0.0005339702 0.016476018 0.013454827 0.021889912 -0.012828597 -0.043642074 -0.013305309
-0.015074359 0.02285499 0.013725757 -0.0025628093 -0.014048503 -0.023145327 0.022411535
00000000: a048 f63c 644c 0e3d cf0f 393c 9b93 3d3c
00000010: 370b 023c 7e1f f23c 2d75 c33b 0211 9f3c
00000020: 42e5 073d 698a 5bbc 2627 923c c93d 17bc
00000030: c0dd 8b3b 0d4f 9bbc abd7 edbb 70b2 8e3c
00000040: baf9 433c c64d a53c 9195 393c 7ea5 fc3c
00000050: c455 fa3c c795 f33c c2a2 093d 2272 b6bb
00000060: af79 133d a50d 803c 5049 f63b ce45 553c
00000070: 3181 1bbc f550 3a3c 4f94 85bc b5fd 6a3c
00000080: 831b df3c a303 96bc 2ed2 7e3c 8e23 aa3b
00000090: 4423 da3c c890 8fbb b9d5 9e3c 5546 c2bc
000000a0: fb35 4dbc 7332 20bc 98d7 a2bb deb5 5fbc
000000b0: 3053 493b 89b5 99ba b2ec 053d 8e2c c93b
000000c0: 231f 65bc 428d 0ebc e608 6cbc ad3b 40bc
000000d0: 6cc1 3a3c 875e 00bc e019 103a d294 f43c
000000e0: bb4a 3c3c 2ed2 1e3c 7ca0 db3c e02c b53c
000000f0: 6ac9 893c 1339 01bc 3b82 c1bc 404c ec3c
00000100: 2323 b33c 1ebd 9a3c 692f babc d2e2 bfbc
00000110: 8dc5 7e3c 76dc 8fba 139f e8bb 6785 9fbc
00000120: 539c 5e3c d686 da3c 172e 8cba b48c 223c
00000130: bbea 6ebc ed1a 7abc e944 4e3c 748b 263c
00000140: 3ca3 a1bc 8f8b 3f3c e6b3 82bc d5a7 80bc
00000150: 6934 873c 0a66 9d3c d325 37bc b6d6 57bc
00000160: 693f 743c 3978 4cbb deb1 0abd aa6e 8a3c
00000170: 33e6 8a3c 4fa5 863c ddef 943c 9817 28bb
00000180: 10fb edbb e1ce 963c e40d 35bc 071c fbbc
00000190: 4d5e 9a3c 8396 453c 807b 1abc 2ee3 08bc
000001a0: 062d 3ebc 3907 1cbb e400 4dbc b447 a53c
000001b0: 724e 50b8 e4f3 17bd 8a92 bb3a 3ef5 c8bc
000001c0: 1ef0 1b3c 22fa 0bba b7f8 863c a271 5c3c
000001d0: 7952 b33c 092f 52bc 08c2 32bd 83fe 59bc
000001e0: 72fa 76bc 633a bb3c ffe1 603c cef4 27bb
000001f0: b12b 66bc 459b bdbc 6598 b73c
