self_play_2.pt (torch, 816296 bytes, 8 tensors)

layer1.weight f4 [256, 152]
0.0856003 0.038352422 0.07922436 0.0027913842 0.069703124 -0.07815446 -0.1148499 0.03334564
-0.03115513 -0.021350423 -0.025492303 -0.011497716 -0.04837116 -0.04658916 -0.0227658 0.046933874
-0.031262416 -0.006792758 -0.041627657 -0.062161557 0.026887547 0.010383678 -0.06588596 0.0071613486
-0.04462124 -0.019857086 0.038481478 0.017157888 0.03926985 0.04054799 -0.030560909 -0.011066627
0.07853412 -0.059878424 0.04120663 0.011066599 -0.030089699 0.030688914 0.05342326 0.035211854
0.06530249 0.0361148 0.015236184 0.09305729 0.08379648 -0.046696965 -0.015213585 -0.018494504
-0.0443244 -0.050638955 0.02444784 0.026760474 -0.026846556 0.010657564 -0.010562556 -0.035900734
0.013688842 -0.025123112 0.03632468 0.04093721 0.06201777 0.07823111 0.08644797 0.0072228215
-0.027065465 -0.045494407 0.02003808 0.0015640256 0.03558103 0.08710034 0.080920994 -0.0018718044
0.13317733 0.0101838615 0.09958648 -0.044464014 -0.031757146 -0.0053196177 -0.07382737 -0.006101024
-0.048369326 0.056799117 -0.034139853 -0.027375506 0.01836008 -0.08515556 0.01753531 0.05591835
0.014233281 -0.03263674 0.042223524 -0.0074002747 -0.08622321 -0.04508411 -0.0013036045 -0.03743545
0.004355089 0.004251163 0.018222177 0.064507246 -0.082600825 -0.029691268 0.015955966 0.032211468
-0.034671918 -0.028477097 -0.043917645 -0.052869886 -0.015780585 0.044693004 -0.08132942 -0.024583386
-0.029918462 -0.0597751 -0.08515224 0.034633756 0.025913138 0.021505453 -0.100248896 -0.08940046
0.008973479 -0.092846006 -0.080522485 0.050174203 0.01574976 -0.06359423 -0.08163246 -0.029707676
0.03364706 0.055092912 -0.054943487 -0.0819129 0.04818779 -0.010166394 0.046319887 -0.08418709
-0.03443384 -0.014802859 0.0014762903 -0.06465283 -0.0765186 0.072632596 -0.05164199 -0.047286484
-0.01954864 -0.040598698 0.012413575 -0.012957338 -0.015398259 0.015491908 -0.090725385 -0.039196875
0.10786933 -0.053162683 0.031232383 0.022100333 0.04796164 -0.02785535 -0.053426486 -0.06819497
-0.018469146 -0.05827419 0.015715834 0.0076567335 -0.041625254 0.00807783 -0.046965353 0.012216147
-0.01690642 0.019745896 -0.02091501 -0.025204474 -0.047980983 0.035045568 0.018463882 0.04257466
-0.06961573 -0.020664752 0.06265456 0.05270146 -0.049682934 0.043405324 -0.012818126 0.030701825
0.0006390041 0.00868434 0.0049773273 -0.027032796 0.005167025 -0.031959586 -0.021088263 0.048599537
0.09242949 -0.007477741 0.028582787 0.043343443 0.021683395 0.00036050932 0.039115343 0.02459854
0.075631104 0.06598266 0.035158843 0.016631102 0.07445625 -0.04548907 0.088523336 -0.032653905
-0.035969723 0.024112195 -0.04053259 0.06569099 0.04464854 0.008979118 0.01730174 0.034018792
0.043328833 0.050044537 0.09190091 0.064928226 -0.0088295955 0.043773893 -0.04716726 0.088087775
0.08087669 0.0143414335 0.021964485 0.0268413 0.07599747 0.0226655 0.034830872 -0.031759262
0.026500965 0.05687168 -0.06320822 0.06039229 -0.08365079 0.011919586 -0.059055835 0.04239299
-0.01323856 0.050138097 0.025574302 -0.056133814 -0.019436939 0.022875998 0.029633654 0.013225899
5.396233e-06 0.04844819 -0.0017129538 -0.078670055 -0.023237688 -0.07781321 0.057867743 -0.015375174
00000000: 364f af3d 6e17 1d3d 6240 a23d a8ef 363b
00000010: 83c0 8e3d 720f a0bd 6d36 ebbd 7095 083d
00000020: 0b39 ffbc 15e7 aebc 3cd5 d0bc eb60 3cbc
00000030: d620 46bd 46d4 3ebd 587f babc bc3d 403d
00000040: 050d 00bd c995 debb c381 2abd 1e9d 7ebd
00000050: 4643 dc3c 4d20 2a3c 38ef 86bd bfa9 ea3b
00000060: c3c4 36bd 54ab a2bc c19e 1d3d b38e 8c3c
00000070: 6cd9 203d a615 263d df5a fabc cc50 35bc
00000080: 7fd6 a03d 1443 75bd 49c8 283d ae50 353c
00000090: ac7e f6bc 5167 fb3c 59d2 5a3d 4e3a 103d
000000a0: 50bd 853d 1ded 133d 30a1 793c d294 be3d
000000b0: 7d9d ab3d 5145 3fbd 6742 79bc c981 97bc
000000c0: 818d 35bd cb6a 4fbd d646 c83c c838 db3c
000000d0: 4fed dbbc 109d 2e3c 920e 2dbc a60c 13bd
000000e0: 2a47 603c fcce cdbc 30c9 143d c7ad 273d
000000f0: 5806 7e3d a237 a03d a20b b13d 6bad ec3b
00000100: 65b8 ddbc 5858 3abd e626 a43c feff cc3a
00000110: 6abd 113d aa61 b23d e8b9 a53d 5557 f5ba
00000120: a35f 083e 36da 263c fff3 cb3d e61f 36bd
00000130: c813 02bd 3050 aebb ce32 97bd 19eb c7bb
00000140: ea1e 46bd 31a6 683d 3bd6 0bbd 9942 e0bc
00000150: e167 963c 0a66 aebd 36a6 8f3c a40a 653d
00000160: b532 693c 1aae 05bd 93f2 2c3d 017e f2bb
00000170: cb95 b0bd 1eaa 38bd b5dd aaba ea55 19bd
00000180: 22b5 8e3b 574d 8b3b ad46 953c 601c 843d
00000190: 9f2a a9bd 1a3b f3bc 16b6 823c 2cf0 033d
000001a0: 2404 0ebd cd48 e9bc fde2 33bd 188e 58bd
000001b0: 4946 81bc 0310 373d 0a90 a6bd 1963 c9bc
000001c0: 9017 f5bc bcd6 74bd 4c64 aebd 20dc 0d3d
000001d0: ca47 d43c 342c b03c 4b4f cdbd 9717 b7bd
000001e0: 8005 133c 0c26 bebd f9e8 a4bd 7783 4d3d
000001f0: a405 813c b13d 82bd eb2e a7bd 835d f3bc
00000200: 80d1 093d 1ba9 613d 6c0c 61bd f3c1 a7bd
00000210: 8f60 453d f290 26bc ecb9 3d3d 486a acbd
00000220: 800a 0dbd b187 72bc 1580 c13a b468 84bd
00000230: c9b5 9cbd 66c0 943d 8d86 53bd 79af 41bd
00000240: 7824 a0bc d24a 26bd 4f62 4b3c 044b 54bc
00000250: fb48 7cbc c6d1 7d3c 3bce b9bd e78c 20bd
00000260: 98ea dc3d 1dc1 59bd 0edb ff3c c20b b53c
00000270: 6d73 443d e730 e4bc bbd5 5abd cea9 8bbd
00000280: 9b4c 97bc ebb0 6ebd 7ebe 803c 56e5 fa3b
00000290: 3e7f 2abd e058 043c be5e 40bd 3c26 483c
000002a0: 557f 8abc 25c2 a13c f455 abbc 9d79 cebc
000002b0: b587 44bd f18b 0f3d 9141 973c c462 2e3d
000002c0: b192 8ebd 2049 a9bc 0951 803d 7cdd 573d
000002d0: 5580 4bbd c8c9 313d 1e03 52bc 6582 fb3c
000002e0: d782 273a c348 0e3c d918 a33b e273 ddbc
000002f0: 2650 a93b 0ee8 02bd 4bc1 acbc 4f10 473d
00000300: ac4b bd3d d707 f5bb 7326 ea3c e588 313d
00000310: 60a1 b13c be02 bd39 6937 203d e182 c93c
00000320: 7be4 9a3d eb21 873d b802 103d f33d 883c
00000330: 857c 983d bf52 3abd b94b b53d 1ac0 05bd
00000340: fd54 13bd f086 c53c 8005 26bd ff88 863d
00000350: 63e1 363d 271d 133c 61bc 8d3c 4a57 0b3d
00000360: 9379 313d 80fb 4c3d 8b36 bc3d 17f9 843d
00000370: 02aa 10bc 414c 333d 7532 41bd 5d67 b43d
00000380: aea2 a53d 55f8 6a3c ddee b33c 49e2 db3c
00000390: 90a4 9b3d 00ad b93c d1aa 0e3d 0016 02bd
000003a0: 8d18 d93c 47f2 683d 5073 81bd e85d 773d
000003b0: 1b51 abbd 5e4a 433c 88e4 71bd 46a4 2d3d
000003c0: 8ce6 58bc 9b5d 4d3d 3381 d13c 92ec 65bd
000003d0: 373a 9fbc 7266 bb3c 47c2 f23c 71b1 583c
000003e0: 4a11 b536 9c71 463d 3185 e0ba c41d a1bd
000003f0: f75c bebc 885c 9fbd ba06 6d3d 27e8 7bbc

layer1.bias f4 [256]
0.036972057 0.016992128 -0.047338456 0.061721567 0.010552738 0.04225289 0.026599858 -0.03781589
0.032450475 -0.009986875 -0.022289261 0.0653414 -0.08554658 -0.02033717 -0.052710325 -0.0852487
-0.050316624 0.008729116 -0.07775179 0.026331756 0.06492455 -0.0117167635 0.009775114 0.00038771876
0.02032836 0.039354842 0.05887836 -0.026018761 0.026983682 0.065816596 0.023607692 0.0042465595
0.027361441 0.068988204 -0.07204645 -0.014541388 0.0025116084 -0.020968108 0.046005674 -0.022472847
0.045713205 0.030252272 0.006278286 -0.075739376 0.013252095 -0.054304983 -0.05174395 0.05322263
0.003350829 -0.05049079 -0.07757788 0.063020505 -0.071849875 -0.03026682 0.02903837 -0.03726967
0.033973154 0.052171018 0.0027052034 0.0400274 0.07786135 0.06591205 -0.06220425 -0.09439832
-0.009773739 -0.016753506 0.036617436 0.06715004 0.038950786 0.025552724 -0.07222248 -0.101689406
0.017544197 -0.055786904 -0.041470665 0.038007565 -0.07472462 0.025071327 0.009630076 -0.028399149
0.04891519 -0.054014176 0.04690106 -0.032349415 0.013156425 0.032721065 0.045701526 0.024899386
0.033759136 -0.06909525 -0.07478488 0.015552841 0.06340482 -0.01367392 0.01558436 -0.022107663
-0.091903046 0.02426416 -0.042705838 -0.03965108 0.026258318 -0.031872652 -0.015901048 -0.038100287
-0.05095413 -0.052798353 0.038311142 0.044803273 0.029413218 -0.078877434 -0.0342038 0.048992947
-0.045836583 0.015442198 0.024701158 0.058347177 0.0037261816 0.020771133 0.04355674 0.022594402
-0.07530959 -0.025225537 -0.062701054 -0.08415872 0.032816578 -0.0061424985 0.039400384 -0.08218733
-0.077505425 0.019013334 0.021146778 0.03178026 0.050073214 -0.081529014 -0.024657717 -0.08032529
-0.055984043 -0.09929409 0.066052124 -0.08506012 0.040408436 -0.075161986 -0.0529831 -0.06022059
-0.0037956752 0.027878335 -0.062453635 0.041365597 0.011913952 -0.02660627 -0.0031500398 -0.033688057
0.06882821 -0.0767487 -0.0013182077 -0.0053140717 -0.023099324 -0.027197013 0.06995683 -0.042095557
-0.060752492 0.045899868 -0.05128036 -0.09307518 0.04777087 0.010012312 -0.06608128 -0.01676545
-0.09271203 -0.04619621 -0.08726416 0.069189996 -0.062041238 0.05776439 0.036513284 -0.021117019
-0.029578684 -0.020303594 0.010559689 -0.05162526 -0.08991012 0.028801316 0.061911535 -0.033687316
-0.06511962 -0.008145452 -0.022671621 0.045980677 -0.028730137 0.05022137 -0.013029025 -0.051405136
0.0052114874 -0.024812827 0.029042758 -0.05994739 0.033630084 0.0580606 0.041981153 0.076787286
0.046016127 -0.0006126147 -0.028792586 -0.060549673 0.070346266 -0.03465888 0.040554587 0.08574973
0.044334944 0.07600107 0.043181684 -0.0046444084 -0.01868676 0.023330435 -0.059262104 0.009452577
-0.001789908 0.018020313 0.00091078616 -0.10084039 -0.043655463 0.018259145 0.016381556 -0.06515124
-0.08176545 -0.08760671 -0.07097885 -0.016672527 0.067160465 0.014529831 0.03696461 -0.09205411
-0.0098600965 -0.015530303 0.041440174 0.01077467 -0.0728308 0.007972205 0.048598677 -0.0096188905
-0.067583494 -0.016749678 -0.040242154 -0.045532104 0.02721382 -0.03401832 -0.027484957 -0.054167345
0.03650562 0.051827163 0.009511014 0.03233971 0.045678977 -0.08651911 -0.009990846 -0.058530487
00000000: 0370 173d 1333 8b3c f8e5 41bd c1cf 7c3d
00000010: 64e5 2c3c 5e11 2d3d f2e7 d93c d6e4 1abd
00000020: caea 043d fd9f 23bc f897 b6bc b6d1 853d
00000030: 0c33 afbd 239a a6bc c8e6 57bd df96 aebd
00000040: ce18 4ebd 9104 0f3c 553c 9fbd b2b5 d73c
00000050: 2af7 843d abf7 3fbc cd27 203c bb46 cb39
00000060: a987 a63c 8b32 213d 6f2a 713d 4c25 d5bc
00000070: e20c dd3c daca 863d eb64 c13c b926 8b3b
00000080: 1a25 e03c b049 8d3d 178d 93bd 003f 6ebc
00000090: cc99 243b 4fc5 abbc 7270 3c3d fa18 b8bc
000000a0: c53d 3b3d 9dd3 f73c 15ba cd3b 3f1d 9bbd
000000b0: 511f 593c e76e 5ebd 77f1 53bd f9ff 593d
000000c0: 9599 5b3b 6ecf 4ebd 27e1 9ebd e510 813d
000000d0: 0726 93bd 1ff2 f7bc e0e1 ed3c 15a8 18bd
000000e0: 6f27 0b3d 47b1 553d c849 313b c5f3 233d
000000f0: c575 9f3d e6fc 863d e2c9 7ebd e853 c1bd
00000100: 0822 20bc a63e 89bc 2afc 153d f685 893d
00000110: dc8a 1f3d f253 d13c 61e9 93bd 8942 d0bd
00000120: d9b8 8f3c cf80 64bd 25dd 29bd d2ad 1b3d
00000130: 3909 99bd 6262 cd3c 77c7 1d3c 55a5 e8bc
00000140: 4b5b 483d f83d 5dbd 531b 403d d280 04bd
00000150: 0c8e 573c 8606 063d 8631 3b3d ccf9 cb3c
00000160: 0547 0a3d cf81 8dbd d128 99bd 58d1 7e3c
00000170: 63da 813d 9408 60bc 8b55 7f3c 211b b5bc
00000180: aa37 bcbd a2c5 c63c 51ec 2ebd 2c69 22bd
00000190: af1b d73c e68c 02bd ea42 82bc 0c0f 1cbd
000001a0: 47b5 50bd 1643 58bd 25ec 1c3d a383 373d
000001b0: fdf3 f03c 7e8a a1bd 4919 0cbd d4ac 483d
000001c0: 24bf 3bbd 4601 7d3c 155a ca3c 73fd 6e3d
000001d0: f432 743b 3928 aa3c 8d68 323d e517 b93c
000001e0: ea3b 9abd c9a5 cebc 6969 80bd 685b acbd
000001f0: ad6a 063d 0347 c9bb 4c62 213d d551 a8bd
00000200: 2abb 9ebd dac1 9b3c 023c ad3c 052c 023d
00000210: 9219 4d3d aff8 a6bd fbfe c9bc 9681 a4bd
00000220: 864f 65bd b35a cbbd 5646 873d 0034 aebd
00000230: 5183 253d 87ee 99bd cf04 59bd dea9 76bd
00000240: ddc0 78bb 1b61 e43c 62cf 7fbd f96e 293d
00000250: bd32 433c 64f5 d9bc e670 4ebb 7dfc 09bd
00000260: cef5 8c3d 6c2e 9dbd b6c7 acba aa21 aebb
00000270: cb3a bdbc 45cc debc 8745 8f3d 646c 2cbd
00000280: 9bd7 78bd 8001 3c3d 5b0b 52bd 339e bebd
00000290: 63ab 433d ae0a 243c 9f55 87bd b257 89bc
000002a0: cedf bdbd 3d38 3dbd 8db7 b2bd 7cb3 8d3d
000002b0: f41e 7ebd 5a9a 6c3d f48e 153d 99fd acbc
000002c0: ff4e f2bc b953 a6bc 8c02 2d3c 0275 53bd
000002d0: cc22 b8bd bdf0 eb3c f396 7d3d b6fb 09bd
000002e0: 6f5d 85bd 8074 05bc d6b9 b9bc 3c56 3c3d
000002f0: 775b ebbc ecb4 4d3d b177 55bc 318e 52bd
00000300: 20c5 aa3b 4544 cbbc 14eb ed3c 658b 75bd
00000310: b3bf 093d f4d0 6d3d 6ef4 2b3d a742 9d3d
00000320: 687b 3c3d e097 20ba 6ede ebbc ef02 78bd
00000330: b411 903d 78f6 0dbd 911c 263d 8e9d af3d
00000340: 8f98 353d 73a6 9b3d 47df 303d 1f30 98bb
00000350: fa14 99bc 781f bf3c d2bc 72bd fbde 1a3c
00000360: 599b eaba 569f 933c d3c1 6e3a 6885 cebd
00000370: 12d0 32bd 3494 953c 9d32 863c 036e 85bd
00000380: a574 a7bd 266b b3bd 5c5d 91bd d394 88bc
00000390: 6d8b 893d 870e 6e3c 3468 173d dd86 bcbd
000003a0: 3e8c 21bc d072 7ebc 2cbd 293d 3e88 303c
000003b0: 5128 95bd da9d 023c 680f 473d 8d98 1dbc
000003c0: 3769 8abd 9f36 89bc f5d4 24bd df7f 3abd
000003d0: 84ef de3c cb56 0bbd 2228 e1bc 94de 5dbd
000003e0: eb86 153d b848 543d 16d4 1b3c a576 043d
000003f0: e119 3b3d ee30 b1bd a5b0 23bc aabd 6fbd

layer2.weight f4 [256, 256]
-0.008058179 0.0071666804 0.0056033307 0.01865474 -0.013487143 -0.062109638 0.0010206773 0.053040743
-0.058357615 0.0033596908 -0.009824357 -0.023906752 -0.025488844 -0.079459585 -0.010724099 -0.025008045
0.009089978 0.004977736 -0.06625756 -0.067417316 -0.0068893265 0.020399628 0.02711455 0.02020963
-0.063833095 -0.011507138 -0.0061943433 0.0389277 -0.019872626 0.03096345 -0.022643829 0.04993833
-0.029055193 0.0086779175 0.0064560105 0.001853433 -0.002211341 -0.0052928673 -0.010448465 -0.020768205
-0.020672653 0.037490144 -0.027228603 -0.03989508 0.003068507 3.8782415e-05 0.0269942 0.00869289
0.00686796 0.020993616 0.023085525 -0.04922682 -0.048802663 8.554694e-05 0.0082574645 0.05229579
0.022571273 0.022165466 -0.021712147 0.025254566 -0.014563446 0.043965135 -0.023552502 -0.03493461
0.0019264309 -0.002531987 -0.049835827 0.00078134425 0.021664798 -0.036994167 0.026497016 0.051105186
-0.034717724 0.030643102 -0.0049288226 0.0050294125 0.052788746 0.05558437 0.0114336815 -0.002777732
-0.048033856 -0.034509115 -0.0647152 0.08102532 0.04600613 -0.054933622 -0.021239018 0.037471045
0.014680208 0.013503982 0.039099026 0.0052997554 -0.041107643 0.004787681 -0.00027866746 0.010334116
-0.037085354 -0.05351238 -0.03322341 0.032285687 0.03081346 0.048972923 0.04131995 0.008098484
-0.02281855 0.018190317 0.020209197 0.0017044789 -0.0112518035 -0.013751276 0.029142283 0.049638826
0.055778693 -0.0059894803 0.002690931 0.0015841221 0.043042827 -0.00034007375 -0.039974537 0.011499222
-0.005807726 0.03357634 -0.07535745 0.04204136 0.04098012 0.029093625 0.04269309 -0.08311877
-0.015726661 -0.021635726 -0.060390312 -0.030550705 -0.034521863 0.014770167 0.032846063 -0.0015217797
-0.00033488142 -0.044508368 -0.0011140163 -0.05733126 0.039891355 0.0010483615 -0.04507135 -0.049348626
-0.05804766 -0.045082357 0.024677878 -0.06105084 0.048291367 -0.04500009 0.027727336 0.033179734
-0.076813556 -0.026171967 -0.011529242 -0.004923992 -0.047866344 0.047064878 0.055293247 0.051833693
0.026693651 -0.06532798 -0.0153840305 -0.031852808 0.037956655 0.014926709 -0.031971004 0.014165925
-0.0008779744 -0.044326007 0.035015855 0.01102203 0.055140708 0.009927762 0.03373784 -0.019967195
-0.0019912492 0.020413112 0.016910734 -0.012609673 0.028589731 -0.039650228 -0.025907127 -0.043078836
0.016784368 -0.08166666 0.024754917 -0.0744987 -0.06165926 -0.0400866 -0.03759185 0.023574233
0.035526887 -0.018555809 -0.08733248 0.028413506 -0.071922615 -0.024779351 0.025793536 -0.024025897
0.027979223 -0.01852711 0.06067632 -0.045090407 -0.02394435 -0.060020838 -0.07116869 0.03435092
0.025545716 -0.04695405 0.013931759 -0.014017205 -0.042453077 0.0035808661 -0.04874701 0.027733572
0.01657636 0.049180325 0.0428872 0.013412999 -0.019715212 -0.035875082 0.017542226 0.040617123
-0.08252691 0.016149681 -0.07615959 0.031186016 -0.04956204 -0.03355974 0.019673096 0.03369511
0.037157156 -0.06586128 -0.034350723 0.020877259 -0.04948909 0.047378033 0.02004892 -0.04507799
0.017341932 -0.037575077 -0.01991549 0.054146323 -0.010453289 -0.045198385 0.054040406 -0.104166165
-0.025003215 0.028849574 -0.06445697 -0.0299018 -0.020661812 0.031487867 0.040404458 -0.012584052
00000000: 7406 04bc 79d6 ea3b 259c b73b d3d1 983c
00000010: 2ef9 5cbc ad66 7ebd 3fc8 853a 4041 593d
00000020: 6508 6fbd 422e 5c3b 57f6 20bc 18d8 c3bc
00000030: fbcd d0bc b5bb a2bd 22b4 2fbc acdd ccbc
00000040: 22ee 143c 471c a33b 0bb2 87bd 1712 8abd
00000050: dcbf e1bb 1f1d a73c 551f de3c aa8e a53c
00000060: edba 82bd 6f88 3cbc ebf9 cabb a772 1f3d
00000070: ebcb a2bc 10a7 fd3c 8d7f b9bc 228c 4c3d
00000080: 2805 eebc d32d 0e3c f18c d33b e4ee f23a
00000090: 25ec 10bb ca6f adbb 0a30 2bbc 1522 aabc
000000a0: b259 a9bc 448f 193d 850e dfbc 0669 23bd
000000b0: 0119 493b 4daa 2238 f122 dd3c a06c 0e3c
000000c0: a00c e13b cefa ab3c db1d bd3c 10a2 49bd
000000d0: 4de5 47bd aa67 b338 514a 073c 1c34 563d
000000e0: 64e7 b83c 5a94 b53c acdd b1bc aae2 ce3c
000000f0: 859b 6ebc c914 343d 2df1 c0bc 9817 0fbd
00000100: 4b80 fc3a b1ef 25bb a720 4cbd 20d3 4c3a
00000110: 607a b13c 3287 17bd 4510 d93c ac53 513d
00000120: 2c34 0ebd 3e07 fb3c f681 a1bb c5cd a43b
00000130: 0339 583d 70ac 633d 5654 3b3c 9c0a 36bb
00000140: 26bf 44bd 6e59 0dbd 6789 84bd 9af0 a53d
00000150: ec70 3c3d 1402 61bd 73fd adbc 3d7b 193d
00000160: 4185 703c ce3f 5d3c 4d26 203d 92a9 ad3b
00000170: 7d60 28bd fbe1 9c3b 1d1a 92b9 6d50 293c
00000180: d0e6 17bd cc2f 5bbd 4515 08bd ff3d 043d
00000190: 826c fc3c d597 483d 1c3f 293d 81af 043c
000001a0: f8ed babc dc03 953c c28d a53c d268 df3a
000001b0: 7c59 38bc 084d 61bc ccbb ee3c 1552 4b3d
000001c0: 3378 643d 6743 c4bb 555a 303b 51a2 cf3a
000001d0: ad4d 303d ed4b b2b9 57bc 23bd 3c67 3c3c
000001e0: bd4e bebb 5887 093d 0255 9abd 9033 2c3d
000001f0: c5da 273d c155 ee3c f3de 2e3d 2c3a aabd
00000200: 33d5 80bc 683d b1bc d55b 77bd 7945 fabc
00000210: cc66 0dbd 92fe 713c 9889 063d 7476 c7ba
00000220: 0693 afb9 684e 36bd 2f04 92ba 2fd4 6abd
00000230: 1e65 233d 2d69 893a bc9c 38bd c921 4abd
00000240: 62c3 6dbd 47a8 38bd 4329 ca3c 7210 7abd
00000250: 2bcd 453d 0452 38bd 7024 e33c 79e7 073d
00000260: 6d50 9dbd 9866 d6bc 25e5 3cbc 7059 a1bb
00000270: 800f 44bd 1ac7 403d 2c7b 623d 914f 543d
00000280: a5ac da3c adca 85bd 4d0d 7cbc 1778 02bd
00000290: 7078 1b3d 288f 743c 07f4 02bd 3218 683c
000002a0: dd27 66ba 308f 35bd c96c 0f3d bf95 343c
000002b0: 39db 613d 0da8 223c b030 0a3d 3e92 a3bc
000002c0: 9e7f 02bb 6639 a73c 6188 8a3c cd98 4ebc
000002d0: 0335 ea3c 4768 22bd 2f3b d4bc 6f73 30bd
000002e0: 5f7f 893c da40 a7bd d3ca ca3c c692 98bd
000002f0: 6c8e 7cbd d931 24bd e9f9 19bd c01e c13c
00000300: a484 113d 5a02 98bc 5fdb b2bd 71c3 e83c
00000310: 2a4c 93bd 11fe cabc f74c d33c f5d1 c4bc
00000320: af34 e53c 2ac6 97bc bc87 783d b8b0 38bd
00000330: f126 c4bc 69d8 75bd e4c0 91bd 8db3 0c3d
00000340: 4045 d13c e452 40bd 0842 643c 6ba8 65bc
00000350: 47e3 2dbd f7ac 6a3b f2aa 47bd 8431 e33c
00000360: 26cb 873c 4f71 493d 7daa 2f3d 32c2 5b3c
00000370: cc81 a1bc c0f1 12bd b7b4 8f3c 245e 263d
00000380: de03 a9bd 564c 843c 8ff9 9bbd d179 ff3c
00000390: 9101 4bbd f075 09bd 7929 a13c e203 0a3d
000003a0: 1a32 183d 47e2 86bd 58b3 0cbd c906 ab3c
000003b0: 12b5 4abd 780f 423d a23d a43c b3a3 38bd
000003c0: ab10 8e3c 53e8 19bd cf25 a3bc 89c8 5d3d
000003d0: 4644 2bbc f121 39bd 7959 5d3d 1255 d5bd
000003e0: 8bd3 ccbc f155 ec3c 0402 84bd 9ff4 f4bc
000003f0: f642 a9bc 6cf9 003d 257f 253d 572d 4ebc

layer2.bias f4 [256]
-0.024388885 0.0012239823 0.048388686 -0.026586844 -0.046667293 -0.067461245 -0.061567165 0.0499261
-0.06539573 0.058522515 0.05325922 0.0008668163 0.021196228 -0.014236041 0.05073142 -0.059693284
-0.09027182 0.018887995 -0.06388743 -0.028071562 -0.063654356 0.03862261 -0.01675427 0.07509277
-0.07029495 0.039050344 -0.014929716 -0.10486649 -0.05409377 0.01562542 -0.004432859 0.03733992
-0.007317383 -0.03647563 -0.043981783 -0.08455534 -0.021492163 0.03020122 -0.014732745 -0.05174562
-0.0021384978 0.04963951 -0.05509211 -0.0039510694 0.018115003 -0.101511545 -0.0134066595 0.051460423
0.049241316 -0.026894666 0.01880202 0.06050932 -0.0008556034 0.0008094294 0.03540085 -0.046111662
0.044110905 -0.007857641 -0.08327954 0.082446046 0.05745182 -0.021342436 -0.04095033 -0.07842357
-0.03778071 -0.002316103 -0.065769784 -0.0373495 0.0005257872 -0.1148227 -0.073666364 0.07148984
-0.014785697 0.042508356 0.0408904 0.07718504 -0.01953787 0.06604163 -0.0092552 0.025628807
0.059051026 -0.042099044 0.040349007 0.02908801 0.067831285 -0.026782783 -0.06499022 -0.03150059
-0.01774749 0.027950544 0.022903923 -0.0063981167 -0.031233309 0.0021297426 0.014887539 -0.03586466
-0.009280661 0.0063473773 0.051734053 0.060607787 0.011680345 0.014663114 -0.10226913 -0.07885448
-0.09765901 -0.04161916 0.0074161217 -0.0030297625 -0.016498016 0.041992936 0.05182429 -0.010667784
-0.022862038 0.010800277 0.054756243 -0.030831136 -0.09622943 0.0069221747 0.009183375 0.055997025
0.01171973 -0.00844851 0.0015033894 -0.034294676 -0.06478252 -0.056264244 0.026188154 -0.051075086
0.017600128 -0.013119392 0.092497006 0.03353085 0.040266257 0.028064955 0.055415384 0.0007603565
-0.06516732 -0.0040047164 0.03644039 0.031783294 -0.002965673 -0.058771882 0.036333583 0.029913884
0.031540345 -0.015809976 0.034263413 0.061879907 -0.02377484 -0.003508365 0.09449079 0.060693655
-0.032031644 -0.025215022 -0.051819988 0.057340216 0.036236268 0.014953 0.054010253 -0.030168502
0.04218921 -0.0068002697 -9.4074254e-05 -0.0076387967 -0.025216287 -0.03611459 0.024179107 0.047886774
0.05979737 0.0274416 0.08450151 -0.03674545 -0.024905931 0.067739196 0.066572 0.0043507055
0.06901717 0.049334142 0.021538489 0.0842699 -0.0115215955 0.082944356 0.06359667 -0.061458427
-0.0011089174 0.040591236 -0.059394106 0.0013342967 0.06230032 0.051074654 -0.0879378 0.003880073
-0.052568786 0.06602001 -0.037364915 -0.0075973184 -0.07220938 -0.094052434 0.0035637715 0.017146276
0.015109162 0.029987128 -0.0058060936 0.030764839 0.039782114 -0.023209333 0.052796036 0.07575811
0.001222018 -0.028037077 0.035076473 0.061094604 0.08032155 -0.00016871761 0.0041499 0.04668724
-0.013328735 -0.019701485 -0.008872172 -0.010251095 -0.007752061 0.06964205 0.050040334 0.06470015
-0.061826617 0.03416677 -0.02368025 -0.013002036 0.049986914 0.027475087 0.011884271 -0.027808834
-0.04891739 -0.019818675 -0.0618211 -0.052252363 -0.037863743 -0.012311144 0.047312602 0.024350168
-0.08931675 -0.049338102 -0.03481742 0.044088814 0.023953237 0.04294336 0.041046113 0.012985164
-0.0107128685 0.04234261 0.077535205 -0.053265482 -0.013573145 -0.048626233 0.0517008 -0.023832936
00000000: 33cb c7bc 086e a03a 3733 463d a7cc d9bc
00000010: 3426 3fbd 1f29 8abd da2d 7cbd 4f7f 4c3d
00000020: 32ee 85bd 4eb5 6f3d 5726 5a3d 0f3b 633a
00000030: b6a3 ad3c 493e 69bc c0cb 4f3d f280 74bd
00000040: 6fe0 b8bd ffba 9a3c 6ad7 82bd 55f6 e5bc
00000050: 375d 82bd be32 1e3d 4040 89bc 3dca 993d
00000060: ccf6 8fbd 41f3 1f3d c49b 74bc 3ec4 d6bd
00000070: 6e91 5dbd e100 803c 8441 91bb bef1 183d
00000080: a8c6 efbb 7867 15bd 3e26 34bd 5a2b adbd
00000090: 5510 b0bc 8d68 f73c 9c61 71bc 37f3 53bd
000000a0: 0a26 0cbb cd52 4b3d 44a8 61bd f977 81bb
000000b0: ea65 943c 49e5 cfbd 9ba7 5bbc 2ac8 523d
000000c0: 43b1 493d 3452 dcbc b206 9a3c 9fd8 773d
000000d0: 924a 60ba e32f 543a 7b00 113d 95df 3cbd
000000e0: a3ad 343d 56bd 00bc 778e aabd 79d9 a83d
000000f0: 9952 6b3d 55d6 aebc 89bb 27bd 899c a0bd
00000100: f2bf 1abd c3c9 17bb 4fb2 86bd cafb 18bd
00000110: fbd4 093a 2a28 ebbd 64de 96bd 4469 923d
00000120: b53f 72bc 3e1d 2e3d b17c 273d 3113 9e3d
00000130: e20d a0bc d640 873d 1fa3 17bc 81f3 d13c
00000140: 7ddf 713d 0c70 2cbd 0045 253d fa49 ee3c
00000150: 21eb 8a3d 9167 dbbc 9819 85bd c306 01bd
00000160: 2f63 91bc 8af8 e43c 02a1 bb3c 4ba7 d1bb
00000170: ffdc ffbc 2793 0b3b ddea 733c d2e6 12bd
00000180: ea0d 18bc a9fd cf3b 16e7 533d df3f 783d
00000190: eb5e 3f3c 8f3d 703c 7a72 d1bd 757e a1bd
000001a0: 7201 c8bd da78 2abd f002 f33b fb8e 46bb
000001b0: d926 87bc c900 2c3d b545 543d eec7 2ebc
000001c0: 2b49 bbbc a5f3 303c 1548 603d 9491 fcbc
000001d0: ef13 c5bd 69d3 e23b de75 163c 235d 653d
000001e0: 1c04 403c 9f6b 0abc 610d c53a 9378 0cbd
000001f0: b3ac 84bd 5675 66bd 8a88 d63c 1c34 51bd
00000200: 252e 903c b8f2 56bc 126f bd3d a557 093d
00000210: 3bee 243d 7ae8 e53c 3efb 623d a952 473a
00000220: 7276 85bd ff39 83bb 8542 153d 332f 023d
00000230: bd5b 42bb c9ba 70bd 86d2 143d f60d f53c
00000240: 7330 013d ec83 81bc cb57 0c3d c975 7d3d
00000250: 74c3 c2bc 99ec 65bb 6384 c13d e999 783d
00000260: 9d33 03bd bc8f cebc 3241 54bd 93dd 6a3d
00000270: 7b6c 143d 6dfd 743c db39 5d3d ef23 f7bc
00000280: 98ce 2c3d ccd4 debb bb49 c5b8 df4e fabb
00000290: 6392 cebc e4ec 13bd 4313 c63c ec24 443d
000002a0: 16ee 743d 35cd e03c 210f ad3d 6682 16bd
000002b0: 8607 ccbc d9ba 8a3d e756 883d 5d90 8e3b
000002c0: e058 8d3d 9912 4a3d 7c71 b03c b395 ac3d
000002d0: 13c5 3cbc bbde a93d f93e 823d d5bb 7bbd
000002e0: 1859 91ba ff42 263d 3c47 73bd 91e3 ae3a
000002f0: 9f2e 7f3d a833 513d bc18 b4bd d348 7e3b
00000300: 5e52 57bd 8035 873d f40b 19bd edf2 f8bb
00000310: 83e2 93bd 909e c0bd 2a8e 693b 5976 8c3c
00000320: 6b8c 773c 91a7 f53c 0b41 bebb 8b06 fc3c
00000330: 92f2 223d 8021 bebc a840 583d 1127 9b3d
00000340: 1f2c a03a 03ae e5bc 59ac 0f3d 563e 7a3d
00000350: a07f a43d cae9 30b9 e2fb 873b 1f3b 3f3d
00000360: c460 5abc 0265 a1bc 965c 11bc 35f4 27bc
00000370: 0005 febb 7ea0 8e3d 18f7 4c3d 8381 843d
00000380: e83d 7dbd 74f2 0b3d 15fd c1bc 7e06 55bc
00000390: 14bf 4c3d 6f13 e13c 3fb6 423c 5acf e3bc
000003a0: 9a5d 48bd c65a a2bc 1f38 7dbd 9306 56bd
000003b0: 0317 1bbd aeb4 49bc dcca 413d 017a c73c
000003c0: b3eb b6bd c016 4abd b69c 0ebd 7996 343d
000003d0: 9439 c43c 60e5 2f3d f81f 283d babf 543c
000003e0: 0785 2fbc 726f 2d3d c7ca 9e3d e82c 5abd
000003f0: e561 5ebc 4d2c 47bd 38c4 533d 4a3d c3bc

layer3.weight f4 [256, 256]
-0.05646344 -0.079867825 0.033940934 0.0056674876 0.058128025 0.043391876 -0.046592098 -0.024372471
5.9077305e-05 -0.066368595 -0.057042364 -0.034479085 -0.0008551985 0.012390228 -0.0056066047 0.00893296
-0.013639043 0.024965184 -0.038275413 -0.01969321 -0.056393523 -0.0027991056 0.024264414 -0.016030978
-0.019713463 0.034398213 0.003156771 0.022871504 0.06016351 -0.0011770319 -0.04300968 -0.01692466
-0.029036377 0.035289876 -0.05443662 -0.07220703 -0.004886346 0.051315088 -0.00998798 0.012260072
0.023060944 0.025135847 -0.02282125 -0.016783 0.012204775 -0.05355821 -0.029227432 -0.008143025
0.015057218 0.04274651 -0.0024491795 -0.0053928858 -0.045001775 -0.011224753 0.015968416 -0.03901682
0.0021639345 -0.02853775 -0.004791348 0.059296127 0.021600887 -0.05604554 0.0001760042 0.04438433
0.034516357 0.032363903 -0.051180802 0.018927265 -0.043836176 -0.0061794524 -0.052512206 0.015125713
0.014256356 -0.031059442 -0.049899474 -0.009889735 0.028064594 -0.028313901 -0.030822976 -0.05881661
-0.045781285 0.024388144 0.03455402 0.019066738 0.00078262156 -0.0076793064 0.041799206 0.031202173
-0.027962945 -0.028543785 0.047319654 -0.023651108 -0.016169345 0.028363323 0.0408674 0.022453187
0.051398087 0.043287374 -0.018079095 -0.06040083 0.021769298 0.033426005 0.009423525 0.046284802
-0.005160549 -0.02744546 0.03549081 0.04211914 0.025597839 0.012488612 -0.0043667415 -0.02572209
-0.05347927 -0.06568798 0.02815173 -0.04344624 0.034367636 0.049995925 -0.024892204 0.032367997
0.0041419812 0.04167328 -0.020912096 0.047911853 0.024762826 -0.017293258 0.0008495089 -0.0033992399
0.032537 -0.010665606 0.017387563 0.044248387 0.071447775 -0.025157811 -0.015934909 -0.016438233
-0.040958874 0.03468139 -0.04544914 -0.026933521 0.02011323 -0.003938614 0.028309252 0.05291952
-0.0061839884 -0.028912675 0.016143192 0.04124369 0.034827683 -0.036034755 0.021540416 0.043530904
-0.04525582 0.0013810243 -0.030859571 -0.012294611 -0.027648196 0.03209774 0.022916226 -0.06188675
-0.033400714 0.0015793925 -0.023381693 -0.025717925 -0.0003307284 0.02585084 -0.01679978 0.05256055
-0.023738189 0.023594303 -0.032533996 -0.06467555 -0.028975198 -0.015442378 0.057717077 -0.013605075
-0.03309709 0.038784634 -0.016756643 -0.0022925208 0.018802231 -0.023267953 0.047063924 -0.044681508
-0.021704921 -0.019603673 0.016752632 -0.020447163 0.015944583 0.0002587168 -0.039145455 -0.024015814
0.030922286 -0.042748764 0.041560188 0.049832355 -0.06395557 -0.049193837 -0.03852878 0.017165618
-0.028677678 0.024296287 -0.06666277 0.06840486 0.0029459847 0.031727 0.022603532 0.04008236
-0.03807182 -0.028528292 0.028848566 -0.031898074 -0.05923496 0.030764442 -0.04937781 -0.01073298
0.011630959 -0.023781594 -0.013110997 0.031133153 -0.0035380449 -0.043362886 -0.053101674 0.054098833
0.043894015 -0.0024770533 -0.01248266 0.021478096 -0.05504856 -0.03423271 0.017433148 -0.035096876
-0.04281421 0.007673495 -0.023106543 0.021424526 -0.038329776 -0.014852596 -0.016391406 0.025743835
-0.028947165 0.022946132 -0.050166067 0.0074697277 -0.026855195 0.026743704 -0.056942787 -0.07207369
-0.008897005 0.0044933544 0.0025246069 -0.06999348 0.050966226 -0.020070668 -0.0007274891 0.03025192
00000000: 3546 67bd be91 a3bd a605 0b3d 55b6 b93b
00000010: a717 6e3d aebb 313d 5bd7 3ebd c7a8 c7bc
00000020: c6c9 7738 42ec 87bd 41a5 69bd f139 0dbd
00000030: 662f 60ba 6200 4b3c 9cb7 b7bb 8d5b 123c
00000040: 4b76 5fbc c983 cc3c aec6 1cbd a853 a1bc
00000050: e5fc 66bd 3371 37bb 2ac6 c63c 6653 83bc
00000060: 217e a1bc 24e5 0c3d d4e1 4e3b 055d bb3c
00000070: 036e 763d a346 9aba eb2a 30bd 96a5 8abc
00000080: b2dd edbc 1e8c 103d eff8 5ebd 48e1 93bd
00000090: a41d a0bb c52f 523d a0a4 23bc 78de 483c
000000a0: 4eea bc3c b1e9 cd3c a1f3 babc 817c 89bc
000000b0: 89f6 473c db5f 5bbd 5e6e efbc 536a 05bc
000000c0: 8db2 763c f716 2f3d 6a82 20bb ceb6 b0bb
000000d0: c853 38bd 07e8 37bc 32d0 823c 1ad0 1fbd
000000e0: ccd0 0d3b 00c8 e9bc bd00 9dbb 7fe0 723d
000000f0: 58f4 b03c 0290 65bd c58d 3839 58cc 353d
00000100: 0661 0d3d 0390 043d f6a2 51bd 5a0d 9b3c
00000110: 908d 33bd 017d cabb 0a17 57bd d7d1 773c
00000120: 7e93 693c 5f70 febc 6463 4cbd 8e08 22bc
00000130: b8e7 e53c 8ef2 e7bc 7780 fcbc b0e9 70bd
00000140: 2885 3bbd a5c9 c73c 8488 0d3d d931 9c3c
00000150: d828 4d3a b1a2 fbbb a535 2b3d b39b ff3c
00000160: 8c12 e5bc a8d4 e9bc 41d2 413d f8bf c1bc
00000170: 9375 84bc 335a e83c 9364 273d bfef b73c
00000180: cd86 523d 1a4e 313d 9c1a 94bc dc66 77bd
00000190: 8755 b23c b5e9 083d 2165 1a3c 2295 3d3d
000001a0: d319 a9bb 4dd5 e0bc d05e 113d 1f85 2c3d
000001b0: 8fb2 d13c 099d 4c3c e216 8fbb 22b7 d2bc
000001c0: 140d 5bbd 6b87 86bd 759e e63c aff4 31bd
000001d0: 14c5 0c3d 87c8 4c3d bcea cbbc 4e94 043d
000001e0: 75b9 873b 9ab1 2a3d d84f abbc 383f 443d
000001f0: 69db ca3c 97aa 8dbc 94b1 5e3a c8c5 5ebb
00000200: 8445 053d cbbe 2ebc 5d70 8e3c cc3d 353d
00000210: 3653 923d c117 cebc ed89 82bc 79a9 86bc
00000220: 7ec4 27bd 130e 0e3d e128 3abd b0a3 dcbc
00000230: 80c4 a43c 7d0f 81bb cee8 e73c 23c2 583d
00000240: 0ea3 cabb 46da ecbc ba3e 843c 25ef 283d
00000250: 79a7 0e3d 2e99 13bd 8775 b03c 764d 323d
00000260: 2b5e 39bd 7c03 b53a 36cd fcbc 566f 49bc
00000270: 787e e2bc eb78 033d cfba bb3c f67c 7dbd
00000280: 30cf 08bd 9e03 cf3a f78a bfbc 66ae d2bc
00000290: 9d65 adb9 24c5 d33c b19f 89bc bb49 573d
000002a0: 9776 c2bc d748 c13c 5e42 05bd 9d74 84bd
000002b0: 655d edbc 0702 7dbc be68 6c3d d2e7 5ebc
000002c0: d090 07bd a3dc 1e3d 3a45 89bc 1e3e 16bb
000002d0: 2307 9a3c 6f9c bebc 1ac6 403d f503 37bd
000002e0: 85ce b1bc e297 a0bc d13c 893c cf80 a7bc
000002f0: 379e 823c 62a4 8739 fc56 20bd d0bc c4bc
00000300: bc50 fd3c 5419 2fbd 043b 2a3d 031d 4c3d
00000310: 23fb 82bd 7a7f 49bd 5bd0 1dbd e99e 8c3c
00000320: 73ed eabc 0209 c73c 7e86 88bd d917 8c3d
00000330: 6c11 413b 2cf4 013d 0b2b b93c 672d 243d
00000340: 32f1 1bbd 2ab4 e9bc d453 ec3c 8ea7 02bd
00000350: 5ba0 72bd b605 fc3c 6340 4abd 62d9 2fbc
00000360: c78f 3e3c 9ed1 c2bc 82cf 56bc f40a ff3c
00000370: 8bde 67bb 489d 31bd 2481 59bd bd96 5d3d
00000380: 36ca 333d 0f56 22bb 1284 4cbc d5f2 af3c
00000390: 997a 61bd 9937 0cbd f6cf 8e3c bec1 0fbd
000003a0: f45d 2fbd f171 fb3b ef49 bdbc 7d82 af3c
000003b0: afff 1cbd 4e58 73bc 4547 86bc bce4 d23c
000003c0: 9b22 edbc 87f9 bb3c ef7a 4dbd 9ec4 f43b
000003d0: 6dff dbbc 9d15 db3c d73c 69bd 5f9b 93bd
000003e0: bec4 11bc fd3c 933b e073 253b be58 8fbd
000003f0: f6c1 503d 3e6b a4bc f8b4 3eba e0d2 f73c

layer3.bias f4 [256]
-0.045488004 -0.032813486 0.0032688195 -0.043008264 0.041233312 -0.0023607216 0.033402126 -0.04623581
0.03137296 0.015118796 0.008563374 -0.0001443234 -0.055075396 -0.059218373 0.016997473 -0.07033521
0.011187581 0.00350974 -0.03906286 -0.072310306 -0.061853275 -0.024415635 0.022026818 -0.005187043
0.052379582 -0.022297267 -0.0149939675 0.04762818 -0.04427444 0.010057933 -0.018420046 0.022748597
-0.012773152 -0.06334584 -0.019619165 0.014274079 0.006978884 -0.06606629 -0.051441904 -0.060550984
0.019592002 -0.073984474 -0.06171583 -0.013631433 -0.03644166 -0.008005487 -0.05235446 0.06790297
-0.024004439 -0.020744396 0.029036367 -0.034598175 -0.049245507 0.021932947 0.032380246 -0.03153575
-0.0653207 0.07108516 0.03463973 -0.035504885 0.0314465 -0.044692412 -0.068512805 -0.06429783
-0.023856545 0.05006461 -0.042960748 0.057204768 0.08487817 -0.070557326 -0.040129725 -0.069885954
0.07145859 -0.0075005125 -0.028445082 -0.0035574983 0.05443522 -0.021985147 -0.050941214 -0.017869553
-0.019189436 -0.02379157 0.010809581 -0.032481108 0.04840141 -0.034899235 0.00392823 0.017361209
0.0038437652 -0.052171137 -0.0644817 -0.03571726 -0.030559897 0.003898707 -0.0059811105 0.0076226164
0.08415275 0.02143777 -0.022942157 0.04367967 -0.030452028 0.043374356 -0.080647476 0.08449079
-0.035473082 0.024657318 -0.021026893 0.049987465 -0.056993082 -0.06168799 0.0031160535 0.025655922
0.033296246 0.053070363 -0.043138694 -0.029527964 0.069950186 0.0678739 0.014836203 -0.007932932
0.018665493 -0.0695988 0.05947008 0.009987393 -0.02735118 0.04994695 0.08506575 0.024164235
-0.004390168 -0.0022860854 -0.034453124 -0.039986674 -0.037171815 0.039487507 -0.041829955 0.04570425
0.03030415 -0.06448123 0.056997813 -0.021331055 0.016783 0.020983616 -0.018996174 0.040667765
0.024274545 -0.014755177 0.011950327 0.04145797 -0.054595616 -0.010470971 -0.03470442 -0.043175533
0.0069224345 -0.071935765 -0.070735514 0.0020606082 -0.038998023 3.7348225e-05 0.07477064 0.06768639
0.0064091305 -0.003813232 -0.05826632 -0.05316693 0.053571317 -0.044301666 0.00580412 -0.04901977
0.055985738 0.004107784 0.03721821 -0.058029234 0.034328505 0.035247535 0.041914206 0.022160992
-0.017090034 0.034667626 -0.028713627 0.04913526 -0.051125754 0.068660796 -0.062373035 -0.086068876
-0.06550651 -0.05022169 -0.04373932 0.022137713 -0.07437277 0.02805754 0.058789622 0.07920627
0.06592452 -0.002528847 -0.05398847 -0.05615276 0.06211208 0.078741945 -0.02646863 -0.040650915
-0.026943468 -0.06915208 -0.044399597 0.0075257625 0.014047495 -0.0493896 -0.0602164 -0.03513885
0.032679405 -0.0556797 -0.06997774 -0.018997567 -0.05865725 -0.02046258 -0.04458291 -0.026401106
-0.041560315 -0.0034605074 -0.020643683 -0.018370975 -0.0045031114 -0.019810745 -0.08185611 0.101839505
0.05124944 0.012310186 0.0412802 -0.033762917 -0.049490802 -0.027826076 -0.016460663 -0.00781737
0.06579797 0.025268864 -0.030925183 0.010703406 0.037617497 -0.052203313 -0.052262798 -0.04589032
-0.07959523 -0.031485118 0.0482925 0.035332087 -0.03746252 0.043363724 -0.043476794 -0.053707622
0.029921949 -0.03337916 0.022259533 0.038846638 0.012759234 -0.022856124 0.06396891 0.021689653
00000000: a151 3abd 6f67 06bd b139 563b 6f29 30bd
00000010: 43e4 283d 56b6 1abb abd0 083d c361 3dbd
00000020: ef80 003d d4b4 773c 654d 0c3c 8555 17b9
00000030: bd96 61bd f78e 72bd 493e 8b3c e80b 90bd
00000040: 1e4c 373c ab03 663b 6100 20bd 6d17 94bd
00000050: dc59 7dbd 4c03 c8bc 9671 b43c 12f8 a9bb
00000060: f98b 563d c2a8 b6bc 42a9 75bc c415 433d
00000070: 1d59 35bd 07ca 243c a3e5 96bc 445b ba3c
00000080: 7c46 51bc 77bb 81bd 5fb8 a0bc d4dd 693c
00000090: 1faf e43b c34d 87bd bfb4 52bd 4f04 78bd
000000a0: 687f a03c 2c85 97bd bdc9 7cbd 6056 5fbc
000000b0: da43 15bd 7229 03bc a171 56bd b610 8b3d
000000c0: f5a4 c4bc 27f0 a9bc addd ed3c d1b6 0dbd
000000d0: a8b5 49bd b9ac b33c 26a1 043d a12b 01bd
000000e0: dcc6 85bd 1995 913d 64e2 0d3d 926d 11bd
000000f0: 0cce 003d 640f 37bd 7150 8cbd 95ae 83bd
00000100: cd6e c3bc 8c10 4d3d 9cf7 2fbd 8c4f 6a3d
00000110: 9bd4 ad3d 5c80 90bd 115f 24bd 5e20 8fbd
00000120: e258 923d dcc6 f5bb a905 e9bc eb24 69bb
00000130: 77f7 5e3d 321a b4bc bca7 50bd 2b63 92bc
00000140: 2a33 9dbc 8ae6 c2bc ab1a 313c e90a 05bd
00000150: 8f40 463d 80f2 0ebd 62b8 803b 1839 8e3c
00000160: aee7 7b3b 67b1 55bd fb0e 84bd 434c 12bd
00000170: c058 fabc 7381 7f3b 31fd c3bb 24c7 f93b
00000180: 4758 ac3d 439e af3c 31f1 bbbc 74e9 323d
00000190: 8876 f9bc 4fa9 313d 812a a5bd 8209 ad3d
000001a0: 394c 11bd 25fe c93c 9740 acbc a8bf 4c3d
000001b0: 9471 69bd 8cac 7cbd b436 4c3b 5e2c d23c
000001c0: a561 083d 4f60 593d 33b2 30bd a1e4 f1bc
000001d0: 0b42 8f3d 7901 8b3d 8c13 733c 21f9 01bc
000001e0: 60e8 983c d189 8ebd e696 733d 2aa2 233c
000001f0: 950f e0bc 2c95 4c3d f436 ae3d 13f4 c53c
00000200: 66db 8fbb 26d2 15bb b81e 0dbd 11c9 23bd
00000210: 7941 18bd a7bd 213d e355 2bbd 6134 3b3d
00000220: 6940 f83c bc0e 84bd 8a76 693d 77be aebc
00000230: 817c 893c d5e5 ab3c dd9d 9bbc 3e93 263d
00000240: 69db c63c b3bf 71bc 4ecb 433c d5cf 293d
00000250: a79f 5fbd 708e 2bbc 3926 0ebd d4d8 30bd
00000260: 97d5 e23b 0f53 93bd c8dd 90bd 450b 073b
00000270: 64bc 1fbd 5aa6 1c38 5921 993d 299f 8a3d
00000280: af03 d23b 6be7 79bb aaa8 6ebd 91c5 59bd
00000290: 996d 5b3d aa75 35bd 7d30 be3b f4c8 48bd
000002a0: 4d51 653d 979a 863b 1f72 183d 10b0 6dbd
000002b0: 0c9c 0c3d b85f 103d 3bae 2b3d f88a b53c
000002c0: 6600 8cbc a4ff 0d3d d738 ebbc 0e42 493d
000002d0: 3d69 51bd 089e 8c3d de7a 7fbd e144 b0bd
000002e0: 4728 86bd 42b5 4dbd 0028 33bd 265a b53c
000002f0: c050 98bd edd8 e53c 63cd 703d e636 a23d
00000300: 6f03 873d 03bb 25bb 0423 5dbd 7000 66bd
00000310: 3d69 7e3d 7543 a13d bed4 d8bc 9381 26bd
00000320: 8cb8 dcbc 9b9f 8dbd 5adc 35bd ac9a f63b
00000330: 7727 663c c04c 4abd 79a5 76bd c1ed 0fbd
00000340: d7da 053d 6610 64bd 7d50 8fbd c9a0 9bbc
00000350: 9642 70bd 24a1 a7bc 929c 36bd 2247 d8bc
00000360: 263b 2abd aec9 62bb f11c a9bc ba7e 96bc
00000370: d68e 93bb 254a a2bc 2da4 a7bd 3b91 d03d
00000380: efea 513d aab0 493c 6d15 293d fc4a 0abd
00000390: deb6 4abd 83f3 e3bc 83d8 86bc 6d14 00bc
000003a0: 16c1 863d a600 cf3c cf56 fdbc 575d 2f3c
000003b0: ce14 1a3d 24d3 55bd 8411 56bd 7df7 3bbd
000003c0: d302 a3bd 8af6 00bd 5bce 453d 61b8 103d
000003d0: 4d72 19bd 299e 313d b914 32bd 86fc 5bbd
000003e0: e01e f53c 96b8 08bd a059 b63c a71d 1f3d
000003f0: 1b0c 513c c43c bbbc 2202 833d 80ae b13c

layer4.weight f4 [127, 256]
0.016298654 -0.071567185 0.041813336 -0.061781697 0.022310223 0.028269185 -0.041347675 0.010892798
0.029495442 -0.019284582 0.04954833 -0.0211336 0.07495119 0.017716795 -0.0125238905 -0.048899375
-0.04695307 0.004770061 0.08298299 0.03750294 0.022327157 -0.021639042 -0.02641385 -0.024150075
0.046972003 -0.00073813344 -0.04520098 0.043509748 0.013392505 0.0536125 -0.09860177 0.02413154
0.026072651 0.02768966 -0.032113273 0.02930354 -0.022215085 0.0010295121 0.012828715 -0.027471012
-0.026313877 -0.017647533 0.017779142 0.02630717 -0.014196207 0.046142705 0.020634953 0.005032478
-0.009569324 0.024692943 0.01585488 0.009259654 -0.03545224 -0.05006358 0.044485506 0.00730611
0.051260896 0.039382014 -0.06802839 0.02216462 0.024903288 -0.005493916 0.008448502 -0.014642343
0.028970368 -0.023794245 0.016101932 0.02767168 0.024121339 0.007870232 0.002804286 -0.014683262
-0.008169663 0.024859274 -0.009419021 0.002398104 0.047269247 0.0056382967 0.0014563341 -0.03454363
-0.04323495 -0.060010765 0.028889433 -0.037822407 -0.037104353 -0.012242647 0.006035096 0.01860312
0.037193093 -0.0056899115 0.009689921 0.017749548 -0.0012180182 -0.039542597 -0.078751504 0.087411575
0.025267243 0.031842817 -0.013829321 0.049815156 0.008398708 0.026306724 -0.08884085 0.036154397
0.022144374 0.04028623 0.007080961 0.024890235 -0.021306043 -0.05733149 -0.013651408 -0.027570365
-0.03123786 0.03658248 0.009691642 0.044791635 0.008014929 0.04627859 -0.043856602 -0.03945785
-0.05091871 0.04315879 0.026163494 -0.02636835 0.038734395 -0.02427818 0.023981305 -0.06375144
-0.053649325 -0.0037660904 -0.0017177853 0.022753622 0.0018345874 0.048582487 0.012439267 0.004709308
0.036866363 0.027899005 -0.01855026 -0.0020136917 0.036770813 -0.06315475 0.024297928 -0.011770376
0.028242623 -0.01546844 0.0033888163 0.037684087 -0.043413866 -0.07008537 -0.028134868 -0.0053994157
-0.027866397 0.008841368 -0.046679746 0.01516494 -0.004060247 -0.030850505 0.013888157 0.030359427
0.00926134 -0.04059753 0.053050052 0.052477464 0.08355855 -0.0062122475 0.006743388 0.010087656
-0.044014193 0.036468223 -0.023193503 0.0032173768 0.030596964 -0.049683932 -0.014607055 0.052315407
0.015050601 -0.05351684 -0.01896722 -0.009812118 -0.03463236 0.022376362 0.02035566 -0.0010368568
-0.05534552 -0.034694083 0.02908347 -0.014524438 0.04514972 -0.00458351 0.04269081 0.036338057
0.03760634 0.054251887 -0.03780229 -0.015465399 0.07270759 0.015905108 0.02423011 0.009296511
0.012345024 -0.021469824 -0.011397362 0.007189962 0.055194974 -0.03846987 -0.048542924 0.036983594
0.030560996 -0.010180043 -0.00065469055 -0.031271014 -0.035363425 -0.039072983 -0.043681473 -0.022829253
-0.049294095 -0.044953134 0.056307904 0.017526744 -0.062796704 -0.052833304 -0.024332156 0.021196056
0.068410024 0.077098206 -0.0471357 -0.019446716 0.014488641 -0.021295983 0.021754812 0.025262281
0.03848027 0.1009319 -7.829312e-06 -0.023856988 0.009110258 0.00569586 -0.008842137 -0.021499466
0.009383342 0.048848473 -0.0035918632 0.016969884 -0.042781677 0.029039057 -0.04586691 0.0077081914
-0.053316582 -0.027576126 -0.05270497 0.0462504 0.018048622 -0.048812445 0.054663118 -0.007351615
00000000: c184 853c d191 92bd 7644 2b3d ce0e 7dbd
00000010: eec3 b63c c794 e73c 2e5c 29bd b577 323c
00000020: 6da0 f13c b3fa 9dbc 31f3 4a3d 5f20 adbc
00000030: 0280 993d d022 913c 0131 4dbc b64a 48bd
00000040: dd51 40bd 2c4e 9c3b fcf2 a93d af9c 193d
00000050: 71e7 b63c 5c44 b1bc dc61 d8bc 61d6 c5bc
00000060: b765 403d 4c7f 41ba aa24 39bd 4737 323d
00000070: 3d6c 5b3c c898 5b3d baef c9bd 82af c53c
00000080: 5096 d53c 6dd5 e23c 3589 03bd fa0d f03c
00000090: 69fc b5bc b2f0 863a 882f 523c e30a e1bc
000000a0: 3390 d7bc 8f91 90bc 90a5 913c 2282 d73c
000000b0: 3597 68bc 2200 3d3d a20a a93c 7ce7 a43b
000000c0: a7c8 1cbc db48 ca3c 18e2 813c ceb5 173c
000000d0: 5e36 11bd 780f 4dbd 6f36 363d 1868 ef3b
000000e0: f2f6 513d 094f 213d 7852 8bbd 9492 b53c
000000f0: fb01 cc3c 4f06 b4bb 966b 0a3c 70e6 6fbc
00000100: 4453 ed3c 26ec c2bc 33e8 833c b8af e23c
00000110: 1d9a c53c 25f2 003c 1dc8 373b 1192 70bc
00000120: 0dda 05bc ada5 cb3c 3d52 1abc 8229 1d3b
00000130: 669d 413d 76c1 b83b 77e2 be3a 9f7d 0dbd
00000140: 2217 31bd d9cd 75bd 88a9 ec3c abeb 1abd
00000150: bcfa 17bd 6295 48bc 0ec2 c53b 9265 983c
00000160: c957 183d 7072 babb 79c2 1e3c 8067 913c
00000170: e9a5 9fba 6bf7 21bd 7848 a1bd d704 b33d
00000180: 40fd ce3c 9d6d 023d 6094 62bc fa0a 4c3d
00000190: bc9a 093c 3381 d73c 31f2 b5bd a216 143d
000001a0: 1e68 b53c 2d03 253d 6807 e83b 9be6 cb3c
000001b0: 038a aebc 6dd4 6abd 28aa 5fbc 3fdb e1bc
000001c0: 8ae6 ffbc 83d7 153d b1c9 1e3c 6f77 373d
000001d0: 0c51 033c 9e8e 3d3d fba2 33bd 8e9e 21bd
000001e0: 2390 50bd 45c7 303d d354 d63c 7002 d8bc
000001f0: f5a7 1e3d 09e3 c6bc 7174 c43c 1d90 82bd
00000200: 65bf 5bbd 83d0 76bb 4f27 e1ba ce65 ba3c
00000210: 8a76 f03a 6efe 463d 11ce 4b3c 8a50 9a3b
00000220: 2f01 173d 748c e43c b7f6 97bc 24f8 03bb
00000230: fe9c 163d 4757 81bd 730c c73c 89d8 40bc
00000240: 135d e73c 576f 7dbc e716 5e3b a15a 1a3d
00000250: bdd2 31bd eb88 8fbd 187b e6bc 95ed b0bb
00000260: 1248 e4bc 63db 103c 4333 3fbd 5e76 783c
00000270: d20b 85bb 33ba fcbc 278b 633c 55b4 f83c
00000280: e0bc 173c 9849 26bd 034b 593d 9cf2 563d
00000290: bf20 ab3d 1c90 cbbb a3f7 dc3b b246 253c
000002a0: 3a48 34bd b45f 153d 4d00 bebc a0da 523b
000002b0: 7ca6 fa3c 6181 4bbd 6e52 6fbc ae48 563d
000002c0: cc96 763c 7934 5bbd 2561 9bbc 01c3 20bc
000002d0: a9da 0dbd a24e b73c eac0 a63c 24e7 87ba
000002e0: fcb1 62bd 621b 0ebd 7540 ee3c e9f7 6dbc
000002f0: eaee 383d 4531 96bb 8fdc 2e3d 37d7 143d
00000300: 1b09 1a3d 3a37 5e3d 93d6 1abd 9662 7dbc
00000310: b8e7 943d 6e4b 823c 397e c63c 6550 183c
00000320: c942 4a3c 7ce1 afbc 00bc 3abc c699 eb3b
00000330: 2014 623d 9592 1dbd f2d4 46bd 1c7c 173d
00000340: 0e5b fa3c 32ca 26bc 8a9f 2bba 0916 00bd
00000350: 3dd9 10bd fe0a 20bd 58eb 32bd 6a04 bbbc
00000360: 9be8 49bd c720 38bd 1ea3 663d 3f94 8f3c
00000370: 8f9b 80bd bc67 58bd 3b54 c7bc 5aa3 ad3c
00000380: 8e1a 8c3d aae5 9d3d 5d11 41bd b84e 9fbc
00000390: c461 6d3c ea74 aebc 2637 b23c d8f2 ce3c
000003a0: 7d9d 1d3d 62b5 ce3d a45a 03b7 bb6f c3bc
000003b0: 3143 153c 56a4 ba3b 9cde 10bc a61f b0bc
000003c0: 97bc 193c 5615 483d 7765 6bbb 6d04 8b3c
000003d0: d73b 2fbd 51e3 ed3c f1de 3bbd ff94 fc3b
000003e0: 7d62 5abd 54e7 e1bc 2be1 57bd 0f71 3d3d
000003f0: b4da 933c 8fef 47bd 6fe6 5f3d d1e5 f0bb

layer4.bias f4 [127]
0.03361698 0.029537238 0.014759934 0.016660552 0.013512997 0.024721123 0.012531488 0.021183915
0.027394783 -0.0014998966 0.020023499 0.0017251794 0.008947612 -0.010397222 0.0034393528 0.014636908
0.017248543 0.019871093 0.017725112 0.028818853 0.025987267 0.02659047 0.027383547 -0.0025049027
0.029078081 0.016850682 0.00933964 0.015787488 -0.0015606054 0.014002581 -0.0075003174 0.012103634
0.02610152 -0.008277429 0.018507442 0.0029082496 0.024257034 0.0065375892 0.022663997 -0.016268395
-0.00043994765 -0.0004527828 0.0003717891 -0.00073248206 0.008007723 0.0025692582 0.02778619 0.008229145
-0.007388141 0.0005008066 -0.0018616525 -0.009141558 0.013096257 0.0007783643 0.008625096 0.02359225
0.007788749 0.0050107683 0.021837573 0.012157272 0.0052858084 -0.012915373 -0.022051964 0.02294151
0.017219145 0.012033905 -0.020113632 -0.02424132 0.013281514 -0.00027461315 -0.0038059063 -0.019213485
0.007103802 0.018902736 -0.0025321331 0.008250813 -0.016386285 -0.018122928 0.009952559 0.010323386
-0.019023817 0.008949952 -0.016363785 -0.017085962 0.009910564 0.01816705 -0.012842935 -0.01461861
0.0102665685 -0.0090466365 -0.027080256 0.01907689 0.015177891 0.010443743 0.015421791 -0.00052848575
-0.0077154804 0.013330579 -0.011216072 -0.027243549 0.016896024 0.008213381 -0.011015604 -0.005161356
-0.0077701276 -0.0013241561 -0.010630227 0.021306425 -0.00037494945 -0.030788673 -0.0011986499 -0.01773926
0.006376324 -0.0033348163 0.017144961 0.010035914 0.016484967 -0.013706166 -0.03930481 -0.015154826
-0.014434532 0.021496477 0.009890189 -0.0016634174 -0.018208293 -0.024849031 0.01730846
00000000: f5b1 093d 14f8 f13c a6d3 713c b67b 883c
00000010: 9e65 5d3c f483 ca3c df50 4d3c e489 ad3c
00000020: 066b e03c 2e98 c4ba 5208 a43c 6a1f e23a
00000030: 0199 123c 1c59 2abc c466 613b a4cf 6f3c
00000040: d14c 8d3c b4c8 a23c 4134 913c 8415 ec3c
00000050: 40e3 d43c 42d4 d93c 7653 e03c 4b29 24bb
00000060: 2835 ee3c 710a 8a3c 4a05 193c c354 813c
00000070: 3a8d ccba 156b 653c 39c5 f5bb 524e 463c
00000080: dbd2 d53c 0e9e 07bc eb9c 973c 5598 3e3b
00000090: b0b6 c63c 4639 d63b d9a9 b93c 4c45 85bc
000000a0: c6a8 e6b9 7b63 edb9 b0ec c239 0a04 40ba
000000b0: d332 033c 0061 283b dd9f e33c 89d3 063c
000000c0: 3818 f2bb 9048 033a b102 f4ba 79c6 15bc
000000d0: af91 563c 250b 4c3a 4650 0d3c 8944 c13c
000000e0: c338 ff3b 5f31 a43b b6e4 b23c 4b2f 473c
000000f0: 9334 ad3b 009b 53bc 52a6 b4bc d5ef bb3c
00000100: 2a0f 8d3c db29 453c 58c5 a4bc bc95 c6bc
00000110: b59a 593c f4f9 8fb9 836c 79bb 9965 9dbc
00000120: 03c7 e83b e9d9 9a3c 25f2 25bb 6b2e 073c
00000130: 883c 86bc 8976 94bc 0f10 233c 6b23 293c
00000140: d6d7 9bbc d2a2 123c 580d 86bc dcf7 8bbc
00000150: eb5f 223c 11d3 943c 2c6b 52bc e582 6fbc
00000160: 1c35 283c 5838 14bc 6ad7 ddbc 2347 9c3c
00000170: b0ac 783c 3c1c 2b3c aeab 7c3c 148a 0aba
00000180: 24d2 fcbb 8068 5a3c 9ec3 37bc dd2d dfbc
00000190: 8869 8a3c 6b91 063c cb7a 34bc 9820 a9bb
000001a0: 8e9c febb 4e8f adba 672a 2ebc d08a ae3c
000001b0: dd94 c4b9 8738 fcbc 041c 9dba ed51 91bc
000001c0: 7cf0 d03b ef8c 5abb 9773 8c3c ad6d 243c
000001d0: 7b0b 873c d48f 60bc 15fe 20bd f34b 78bc
000001e0: d17e 6cbc 6119 b03c 760a 223c 0707 daba
000001f0: 8f29 95bc 3290 cbbc 79ca 8d3c
